best_model_1535.pt (torch, 47020 bytes, 5 tensors)

0.weight f4 [64, 106]
000000 b2 9b 40 3d 38 d3 92 3b 36 99 5c 3c 91 83 c7 bd
       0.047023483 0.0044807456 0.013464263 -0.09741891
000010 7f 0d 98 3d 3d c6 50 bd c6 90 00 bd d0 aa 5c bd
       0.07424449 -0.050970305 -0.031388067 -0.053873837
000020 c8 e6 c2 3c bc 0a 2d 3c d9 16 d4 bd e9 11 94 bd
       0.023791686 0.010561641 -0.1035592 -0.072299786
000030 60 fd 2c 3d bc 73 c0 3d 8a 8b 8a bd 99 39 0b bd
       0.042233825 0.093970746 -0.06764896 -0.033990476
000040 79 9f 0a 3d 59 ac 73 bd 5e 0f 2a bc 4e 00 cf bc
       0.03384349 -0.059490535 -0.01037964 -0.0252687
000050 95 f9 31 bd 78 3d a3 3d 63 ff 6a 3d 08 aa 4a 3d
       -0.04345091 0.079707086 0.057372462 0.04947856
000060 69 bf 2b 3d 16 b1 9a bd 34 6f 1b bc 32 d5 68 bd
       0.04193059 -0.07553308 -0.009486962 -0.056843944
000070 09 d9 53 3d 47 9f fb bc f7 11 98 bc a2 47 d0 bd
       0.051720653 -0.030715598 -0.018563254 -0.10169913
000080 b8 a4 a7 3b ed c1 81 3d ed 3d 8f 3d ca 38 58 bd
       0.0051160716 0.063358165 0.06994233 -0.052788533
000090 4a f9 ae bb 1e b5 d7 3b 86 2f 9e bc ff 18 0d 3c
       -0.005339776 0.00658287 -0.01930977 0.008611917
0000a0 7b a3 20 bd 6d f4 97 bd bf 86 c7 3d 84 c9 dd 3c
       -0.039218407 -0.074196674 0.09742498 0.02707363
0000b0 ee a9 af 3d 3d d7 92 3d bd 08 ce bc 59 95 97 3c
       0.085773334 0.0716996 -0.025150651 0.018503832
0000c0 3d 83 a5 bd 0e f4 b6 bd 0c 3e 73 bd 13 29 b0 bd
       -0.08081672 -0.089332685 -0.059385344 -0.08601584
0000d0 5f c7 bb bd f6 56 85 3d 26 06 19 bd c4 30 cf 3d
       -0.091688864 0.06510727 -0.03735938 0.10116723
0000e0 48 45 dc 3a fa f1 b2 3d a5 dd a6 bc a2 77 c8 bd
       0.0016805315 0.087375596 -0.02036936 -0.09788443
0000f0 78 c6 1e 3d a1 2f 91 3d 4e c4 8a 3b 73 7f ac 3d
       0.038763493 0.070891626 0.004234827 0.084227465
000100 39 a4 7c bd 1e a3 8f bd 22 4e b5 3c 47 35 9b bd
       -0.061680052 -0.07013534 0.022131983 -0.07578521
000110 f1 31 4f 3d aa 89 a8 bd 41 6d 4d 3d 6c 4e 31 3d
       0.050584737 -0.08229382 0.05015302 0.04328768
000120 a5 1f 68 bd cb 3e ab 3d a3 a0 aa 3d c4 b3 4b 3c
       -0.056670804 0.08361586 0.0833142 0.012432996
000130 e5 14 d2 bd 59 7b 80 3d 57 78 a8 3d f1 d5 01 bd
       -0.102578916 0.06273527 0.08226078 -0.03169817
000140 1c 2a 09 3d 81 16 39 bd a8 55 88 3b 79 4f b0 3d
       0.033487424 -0.045187477 0.0041606016 0.08608908
000150 ce f5 83 3d 5f d2 70 bd 46 37 f6 bb 0a d4 6a 3d
       0.06443368 -0.058794376 -0.0075139133 0.057331122
000160 80 76 4a bd 35 d8 25 bd 46 6a 43 bd 9f 98 3e bb
       -0.049429417 -0.040489394 -0.047708772 -0.0029082668
000170 c7 52 8c bc f7 c3 19 3d 6c 93 b9 3d c7 b0 e5 3c
       -0.017129315 0.037540402 0.090613216 0.028038396
000180 82 10 4a bd 8e 03 e1 3c 36 fc 40 3c ec ae 8a 3d
       -0.04933215 0.027467515 0.011778882 0.06771645
000190 df 74 8e 3d d3 c9 be bc 36 18 07 3d e3 98 8d 3c
       0.06955885 -0.023289597 0.032982074 0.017284816
0001a0 44 ed 58 bd d3 10 75 3d a2 08 c1 3c 63 21 99 bc
       -0.05296065 0.059830498 0.023563687 -0.018692678
0001b0 61 66 84 bd eb 89 40 bd 3e 7e a8 3a b7 7b 76 bd
       -0.0646484 -0.04700653 0.0012855006 -0.060176577
0001c0 3e c6 08 3d 43 84 ae 3c 5d ea 21 bd 50 4a 41 3c
       0.033392183 0.021303302 -0.039530147 0.011797503
0001d0 89 54 b9 3d 9f 78 a3 3d 90 20 ac 3c 91 c1 64 3b
       0.09049327 0.07981991 0.02101162 0.0034905414
0001e0 62 f4 e3 3c e2 b2 b0 bd 4a 7d db bc 55 8c 57 3d
       0.027826492 -0.08627869 -0.02679314 0.052624065
0001f0 82 39 3a bc 73 11 47 3d 83 a3 44 3d ca 60 06 3d
       -0.01136625 0.048600625 0.0480075 0.03280715
000200 77 53 ac bd e3 e0 a4 bc 23 cf cf bd b2 49 cc bd
       -0.08414357 -0.020126766 -0.1014693 -0.09974994
000210 21 f8 79 3d 44 e0 b9 3c 2d 4a 39 bc d3 6b 91 3d
       0.06102765 0.022689946 -0.011309189 0.07100644
000220 fc e3 41 3d 6d ff 83 bc a2 c3 2b bd d6 cc 0d 3d
       0.047336563 -0.016113007 -0.041934617 0.034619175
000230 cc ac a7 3d c2 2b 46 bd bb da 62 3d 95 5f ba bd
       0.08187255 -0.048381574 0.05538438 -0.09100262
000240 28 72 9b bd 25 d6 dc 3c 9f a1 9a bd f0 23 13 bd
       -0.07590133 0.02695758 -0.07550358 -0.035922945
000250 3c 21 95 bc 10 50 98 bd a2 f2 79 3d b3 02 3c bd
       -0.018204324 -0.07437146 0.06102241 -0.04590101
000260 18 ae e1 bc 4c 5f 34 3c e4 3d 6d 3d f7 e8 1e bd
       -0.027548835 0.011009049 0.05792035 -0.03879639
000270 df 59 13 bd ea c3 82 bd 0e a9 ea bb 55 f7 01 3d
       -0.03597438 -0.06385024 -0.007161266 0.031730015
000280 4c 5a dc bc 8d 0c af bb 31 84 a3 bd f4 3c c0 3d
       -0.026898526 -0.0053420723 -0.07984198 0.09386626
000290 7f 18 a6 bb 28 1c a6 3b 8c 43 17 bd be 8d c6 bd
       -0.005068838 0.0050692745 -0.036929652 -0.09695004
0002a0 10 7b 92 bd d6 52 ab bb c5 27 b2 3d ba 73 8f 3c
       -0.071523786 -0.0052283807 0.08698992 0.017511237
0002b0 17 b3 86 bd d1 78 eb bc 54 c6 03 bc 6b 1f 37 bd
       -0.065771274 -0.028744133 -0.008042891 -0.044707697
0002c0 3d 2a bf bd 91 18 62 bd 58 0d 15 bd fa 8d a1 3d
       -0.09334228 -0.05519921 -0.03638968 0.07888408
0002d0 0c 56 20 3d 08 82 37 bb ba 41 35 3d 4d 3b af bd
       0.03914456 -0.0028001089 0.044252135 -0.085562326
0002e0 bc 1e 4e bd fb f2 34 bd bc 57 14 3d 10 d0 a3 bd
       -0.05032228 -0.044177037 0.036216483 -0.07998669
0002f0 f2 9b 2b 3d fc 63 97 3d 6c 11 9f 3c 5b 8f ae bd
       0.041896768 0.073921174 0.019417487 -0.08523437
000300 5d db e8 3c 68 f0 54 bd 81 d1 60 bd 80 0f 3b 3d
       0.028424913 -0.05198708 -0.0548873 0.04566908
000310 10 28 8a 3d a4 9f b5 bd ba db 8e 3c 0f 25 92 bd
       0.067459226 -0.0886834 0.017438758 -0.071359746
000320 96 12 4b 3c 30 11 d7 3a a0 3b 66 bb 8d 0d 9d bc
       0.012394568 0.001640832 -0.0035130754 -0.0191715
000330 09 82 a2 3d 4e d5 89 bc 48 2d a3 3d f2 c5 8c bc
       0.079349585 -0.016825344 0.07967621 -0.017184231
000340 0e 34 6d 3c 40 e1 24 bd ab 2e 2e bd 12 be 0f 3c
       0.014477743 -0.040253878 -0.042524975 0.008773344
000350 1c 7f aa bd 00 b5 78 37 82 d9 4d 3d 38 e3 09 bd
       -0.083250254 1.4824094e-05 0.05025626 -0.03366396
000360 51 fa ad 3c e7 d7 9e bd 89 9d 87 3c 8a d4 a6 3d
       0.021237524 -0.07756024 0.01655461 0.08146007
000370 6b 53 23 bb 4f fc 53 3d 81 f5 f6 3b 7d 79 c1 bd
       -0.0024921547 0.051754292 0.0075365906 -0.09447
000380 34 7d ca bd 8f c0 50 3d 45 30 ab 3d 74 7c 61 3a
       -0.09887162 0.05096489 0.08358816 0.0008601614
000390 0b 87 c0 bd c7 4c 7a 3d c0 84 9f 3c c7 17 a4 3d
       -0.094007574 0.061108377 0.01947248 0.08012348
0003a0 64 7a 1c 3d dd b3 92 bd 25 6a 63 bd 6c 11 68 3d
       0.03820266 -0.071632124 -0.05552115 0.05665724
0003b0 1a 63 14 bd ed b0 ad bd 85 7f d1 3c a4 46 a4 3d
       -0.036227323 -0.084810115 0.025573501 0.08021286
0003c0 b4 9c 68 3d 61 eb 15 3d 0c d7 3f bd 1a fa 0f bd
       0.05679007 0.036601428 -0.046835944 -0.035150625
0003d0 2a 85 1d bb 3c 6a 9d bd 7a 07 67 3d 6d 3e 40 bd
       -0.002403567 -0.07686278 0.056403615 -0.046934534
0003e0 4e 1e d1 3d 5f ba bf 3d 8a 96 cb 3d 46 5f b7 bb
       0.10210858 0.09361719 0.099408224 -0.0055960743
0003f0 28 97 98 3c 26 7a 51 bd af 7a bb bc 60 62 4a 3d
       0.018626764 -0.05114188 -0.022885649 0.049410224

0.bias f4 [64]
000000 15 02 91 bd 3f 9a bb bb 20 dd 53 3c ae 33 99 3d
       -0.07080475 -0.0057251747 0.012931138 0.0748056
000010 29 a0 4f bd c1 c0 c2 3d ff 64 6e 3d 93 70 d6 bc
       -0.05068985 0.09509421 0.058201786 -0.026176726
000020 ba 98 ed bb 12 b6 0e 3c fa 41 b9 bd 2e 9b a5 3d
       -0.0072508724 0.008710401 -0.09045787 0.08086239
000030 2e 41 ae 3d af ef 66 bd 8c 0d 5e bd 58 94 c8 bd
       0.08508526 -0.056380924 -0.054212138 -0.09793919
000040 c4 71 86 bd 39 42 9a 3d 6b 90 19 3d bc fd 19 bd
       -0.06564668 0.07532162 0.037491243 -0.037595496
000050 d8 82 d7 39 1a 1c f9 3b a7 8e ab 3d 44 27 51 3d
       0.00041105482 0.007602227 0.08376818 0.051062837
000060 b9 d6 29 3d cd 2f b6 3d 2e ce 98 bc 79 33 61 bd
       0.04146454 0.08895836 -0.018653002 -0.05498073
000070 57 5b 6f bd b4 40 86 3d cc da 85 3d a2 f4 5a bd
       -0.058436718 0.0655531 0.06535873 -0.053455956
000080 6a 2a bb 3c 16 51 46 3d 4e e1 75 3d 35 92 96 3c
       0.022847373 0.048417173 0.06002932 0.018380264
000090 37 8b 1b bc b0 46 0e bd 31 c2 fb 3c e4 d9 bd bc
       -0.009493641 -0.03473538 0.030732246 -0.023175187
0000a0 84 15 6a bd e6 51 97 bc 82 7d d0 bd 02 83 d6 3d
       -0.057149425 -0.01847167 -0.10180189 0.104742065
0000b0 f6 e8 17 3d 70 e9 35 bd 6b 4c a1 bc c4 83 95 3d
       0.037087403 -0.044412076 -0.01968976 0.07300523
0000c0 3a 0f 82 3d c8 2e 25 bd c9 7d 81 3d 2c 58 a7 3d
       0.063505605 -0.040327817 0.0632282 0.08171114
0000d0 69 96 cb 3d 04 a8 46 3d aa 00 a8 bd 9c 84 c4 3d
       0.09940798 0.048500076 -0.08203252 0.09595606
0000e0 91 d3 96 3d cb b6 87 3b eb cc 75 bb bb 00 72 3d
       0.07364572 0.0041416637 -0.0037506174 0.059082728
0000f0 51 ce 3d bd 04 90 bd 3d 52 b6 e5 bc 5a 44 b8 bb
       -0.046339337 0.092559844 -0.028041039 -0.0056233825

2.weight f4 [64, 64]
000000 17 ea 62 3c d3 c2 8e 3c dc dc 88 3b ab f2 e9 3c
       0.013849757 0.017426884 0.004176719 0.028558096
000010 49 38 2b be 1f a6 ab 3d b8 bc 5c bc 0e 61 bd bd
       -0.1672069 0.083812945 -0.013472728 -0.09247027
000020 82 e3 64 3c 80 8d 61 bc 2a f8 aa 3d 31 17 60 3d
       0.013970258 -0.013766646 0.08348115 0.054709617
000030 2b be a8 bd 9e a5 0b 3b 27 ce 92 bd f0 69 91 bd
       -0.08239397 0.0021308432 -0.07168227 -0.07100284
000040 1e c5 ab bd 4b 49 8d 3b 6b b6 06 3e f0 52 8f 3d
       -0.083872065 0.0043117157 0.13155524 0.06998241
000050 84 8b 91 bd 7f d7 e9 bd 7b 28 80 3d fe c8 1d 3c
       -0.071066886 -0.11418056 0.06257721 0.00963044
000060 19 a4 dc bd c7 0c 88 bd f9 74 51 bc 24 9b cc 3d
       -0.10773487 -0.06643062 -0.012784236 0.09990528
000070 c7 8e e4 bd 8d 1b 05 bd 72 05 ca bd 65 5d b9 3d
       -0.11160045 -0.032496978 -0.0986432 0.09051017
000080 17 98 ee bd f5 d2 08 3d 64 62 c9 3d cc 9b d4 3d
       -0.116501026 0.03340431 0.0983322 0.103812784
000090 e0 07 fe 3d c7 26 b0 3d 5c f4 3f bc 4f 97 15 3c
       0.12403846 0.08601146 -0.011715975 0.009130313
0000a0 34 dd 98 bd 9d d0 84 3d 57 ce 53 3d b1 73 b8 bd
       -0.07464066 0.06485102 0.051710453 -0.090064414
0000b0 04 5a 7a 3c 07 ca 9e 3d 53 26 98 3c 58 32 ef 3d
       0.01528025 0.077533774 0.018572962 0.11679524
0000c0 72 ba d3 bc 98 5b ee bd 37 ee 27 bc 0e a0 b7 3d
       -0.02584574 -0.11638564 -0.010249666 0.08966075
0000d0 a4 b4 d3 3d 40 30 b8 bc 05 50 8f 3d 6d d3 be bd
       0.10337189 -0.022483945 0.069976844 -0.0931767
0000e0 26 f6 af 3d a0 15 b9 bd ee 04 a1 3c 06 19 9c bd
       0.08591871 -0.09037328 0.019655671 -0.0762196
0000f0 a7 c7 aa 3d e6 ee 08 3d d3 46 b3 3d b5 1c 7b bd
       0.08338862 0.033430956 0.08753743 -0.061306674
000100 a6 9d fc bd f0 ec 34 3d 0d 4b 2e bd ac 90 bf bd
       -0.123347566 0.044171274 -0.042552043 -0.09353766
000110 3d 9a 7f bd 95 96 93 bc d8 eb 5e bd 67 29 d5 3d
       -0.062402952 -0.018016139 -0.054424137 0.104082875
000120 2e 7d 16 3d 04 f7 49 3d 44 a0 a3 3c 3c 18 c8 3d
       0.036740474 0.049307838 0.019973882 0.09770247
000130 a7 a9 6a 3d e9 bd 3a bd d7 0d 77 bd 26 ae 85 bd
       0.0572907 -0.04559127 -0.060315933 -0.06527357
000140 2a ac 6b 3d d7 55 16 3d 40 c3 7f 3d 8e ab 33 bd
       0.057537235 0.036702957 0.062442064 -0.04386478
000150 62 4b 02 bd 24 83 a4 bc 00 20 a9 3c 28 fa 23 3c
       -0.031810172 -0.020082064 0.020645142 0.010008372
000160 97 09 ce 3d 0c 26 dc bd 24 6e 94 3d 23 46 df bd
       0.10060423 -0.10749444 0.0724757 -0.109020494
000170 30 f4 9e bd c9 05 d2 bd 3c 65 86 bd d8 c0 80 ba
       -0.07761419 -0.1025501 -0.06562278 -0.0009823097
000180 00 a1 1c b9 10 a7 18 3b c6 f6 b2 bd ee b6 a3 bd
       -0.00014937297 0.0023292936 -0.087384745 -0.079938754
000190 d1 ef 7e 3b 48 94 87 3d c1 99 f7 bd e0 50 e7 3d
       0.0038900266 0.06620079 -0.12089873 0.112947226
0001a0 61 4f 96 bd 87 ae 84 3c 18 28 fa bc f7 86 cf bd
       -0.07339359 0.016196502 -0.030536696 -0.101331644
0001b0 89 2b 03 be 05 3f d2 bd 62 4c d2 3c f8 63 92 3d
       -0.12809576 -0.10265926 0.025671188 0.07147974
0001c0 5d b1 11 bd 16 22 1b 3d db 8d 9a 3d 4c e2 8c bd
       -0.035569537 0.037874304 0.07546588 -0.068791
0001d0 3a 06 98 bc de 9a d6 bd 56 f6 86 3d 9c fe 11 bb
       -0.018557657 -0.10478757 0.065899536 -0.0022277003
0001e0 c9 2a 02 be c8 87 79 3d 93 42 c4 3d 5c c5 6a bd
       -0.12711634 0.060920507 0.095830105 -0.057317123
0001f0 e4 7f 66 3d 95 4d 40 bd df a4 d4 3d f8 cb fb 3d
       0.05627431 -0.046948988 0.10383009 0.12294763
000200 c7 0d cf bc 42 4c d0 bd 15 59 f9 bd ba 73 7e bd
       -0.025275124 -0.10170795 -0.12175194 -0.062122084
000210 48 a5 ca bd a4 e3 60 3d b8 cf b2 bd a7 a9 ec bc
       -0.09894806 0.054904595 -0.087310255 -0.02888949
000220 1b d9 b7 3c ca a7 84 3d da d2 fb 3d 21 e3 ef bd
       0.022442391 0.06477316 0.12296076 -0.11713243
000230 c4 cb b2 bd d7 bd fb 3c 19 d6 a5 bc 06 ad 7b 3c
       -0.087302715 0.030730171 -0.020243691 0.015361076
000240 00 31 59 3d ed 01 7b 3d 7a 2c 80 3d 9e 35 40 3d
       0.053025246 0.061281133 0.06258483 0.046926133
000250 7b de 27 3d 4d 3c 33 3d d9 ce eb bd a7 7a f6 bd
       0.04098366 0.04375868 -0.115140624 -0.12035113
000260 c2 dd 63 bc 3a e7 ad 3d e6 8f b8 bd ea f7 80 bc
       -0.013907852 0.084913686 -0.090118214 -0.015743215
000270 dc 98 71 3d 89 0f f3 3c 70 7a dc bd 59 71 d5 bd
       0.05898367 0.029670494 -0.107655406 -0.1042201
000280 1f db 59 3d 56 77 5e bd a1 a8 c2 3c d3 86 a5 3c
       0.053187486 -0.054313026 0.02376205 0.02020589
000290 7d 7d 6a bc d4 86 bd 3b 5a e7 ca 3d d5 68 8a 3d
       -0.014312145 0.005783895 0.09907408 0.067582764
0002a0 03 9e 88 bd b6 47 d3 bd 04 8d 69 3d 44 7a b9 3a
       -0.06670763 -0.10316412 0.05701925 0.0014150818
0002b0 14 2b e0 bd 0b a3 8a 3d 99 a2 a3 bd 6a 55 8b bd
       -0.109457165 0.06769379 -0.079899974 -0.06803401
0002c0 b6 2b 92 bd c8 12 f8 3d 7c eb 57 ba 1f a6 82 bd
       -0.071372434 0.12112957 -0.0008236689 -0.06379341
0002d0 8a e7 ca bd 50 43 45 3d 17 02 a7 3c cd c7 d9 3d
       -0.09907444 0.048159897 0.020386739 0.10633812
0002e0 f9 cf d7 bd 63 75 d2 bd 74 99 c1 bc 66 5a d6 bd
       -0.105377145 -0.10276296 -0.023632742 -0.10466461
0002f0 4b 0b da 3d 8d 1d 94 3d 05 73 a7 3d 30 b7 38 3c
       0.10646685 0.07232199 0.08176235 0.011274144
000300 39 eb 95 3d a8 e6 37 bd d8 7a c1 bd 67 79 68 3d
       0.07320256 -0.044897705 -0.09447259 0.056756403
000310 03 fa ab 3c 5d 9a 69 bd cf ce ff bc ce e9 65 bd
       0.020993238 -0.057031978 -0.031226544 -0.056131177
000320 1b 23 c9 3b c9 73 1a bd 1d 97 b0 3d 44 2d a5 ba
       0.006138218 -0.037708078 0.086225726 -0.0012601991
000330 bd 26 b5 3d e6 75 b4 bd 22 d3 db 3d 45 ac a5 bd
       0.08845279 -0.0881155 0.1073363 -0.080894984
000340 da c5 f0 3c 71 d8 ca 3d 14 03 ec bd b7 89 dd 3d
       0.029391218 0.09904564 -0.115240246 0.10817283
000350 40 1a b2 bd de ae 92 bd 81 6b db bd e6 a6 64 bd
       -0.08696413 -0.071622595 -0.10713864 -0.05582323
000360 20 b5 7e 3d 5f bf 95 bc d1 45 b1 3d 3a 68 02 3d
       0.062184453 -0.01827973 0.086558945 0.03183768
000370 dd aa 10 bd 66 9b cb 3d c9 7d f7 bc 4a 9f fd 3d
       -0.035319198 0.09941749 -0.030211346 0.123838976
000380 cd e9 f0 3d b4 50 35 bb 02 84 9d 3c 6a a7 d1 bd
       0.11763344 -0.002766651 0.019227985 -0.1023701
000390 b4 b1 e1 3c 52 cc 02 3d ff d0 aa 3d 08 27 5d 3d
       0.027550556 0.031933136 0.08340644 0.0539923
0003a0 2f 83 b7 3d b4 22 a3 3d 39 b2 a4 bc 3e 25 f3 bc
       0.08960568 0.079656035 -0.020104514 -0.029680844
0003b0 a1 f0 fd bd 07 56 89 3d 5c 24 37 bb 20 15 1a 3d
       -0.12399412 0.067058615 -0.0027945256 0.037617803
0003c0 01 60 12 bd 3d 75 95 3d cb 4e 1e bd 1e 64 fa 3c
       -0.035736088 0.07297752 -0.03864936 0.030565318
0003d0 d8 d2 4f 3d 2a 48 e6 3d 6f 5c 00 be bc 6c 8e 3d
       0.050738186 0.11244233 -0.1253526 0.06954333
0003e0 2c 8c be bd ef 63 57 3d b8 b4 f4 bd 38 51 c0 3a
       -0.093040794 0.05258554 -0.11948532 0.0014672643
0003f0 b0 98 fd 3d 4e 0e a0 3d 0b 39 0c 3d e3 2c 8c 3d
       0.123826385 0.078152284 0.034234088 0.06844499

2.bias f4 [64]
000000 68 75 f0 3d 67 b6 9f 3d d1 69 27 3d 13 57 91 3d
       0.117411435 0.07798462 0.0408724 0.07096686
000010 97 a9 b8 bd 96 a3 81 bd 01 31 a2 3d cd 3e 20 bd
       -0.09016722 -0.0633003 0.07919503 -0.03912239
000020 98 d3 27 3d d3 58 2b bd 8e f0 92 bd cc 93 0a bd
       0.040973276 -0.041832756 -0.071747884 -0.033832356
000030 d2 a6 71 bc 6c a2 62 3d 18 94 22 bc 64 16 8b bd
       -0.014749246 0.05533068 -0.009923004 -0.0679138
000040 45 0a 80 3d 15 f4 17 bb a9 8f 09 bd 7f d6 63 3d
       0.06251959 -0.0023186256 -0.03358427 0.05562448
000050 50 7e f9 bc 68 97 9d 3d dc 1a 9e 3b ed fc 87 3d
       -0.030455738 0.07694894 0.004824979 0.06640039
000060 1e 36 cd 3d 61 a8 99 3d f0 68 fb 3d 11 17 f4 bd
       0.10020088 0.07502819 0.122758746 -0.11918462
000070 dc 73 43 3d 34 70 89 bc 18 28 9f bd 59 11 8b bd
       0.047717914 -0.016777135 -0.07771319 -0.06790418
000080 38 7f 77 bd 4c 60 6e bd 2f d0 af bd cb 15 4f 3d
       -0.06042406 -0.058197305 -0.0858463 0.050557893
000090 2e 19 d4 bd 5c 9c 11 bd d8 e2 a3 3d 24 c9 b3 bc
       -0.10356365 -0.035549507 0.080022514 -0.021946497
0000a0 77 80 ff 3d 49 25 97 bc f6 03 14 3d ad 8c b7 bd
       0.124756746 -0.018450396 0.03613659 -0.08962379
0000b0 5e 62 84 3d 20 fd 32 bd c1 13 74 3c 09 ec ce 3c
       0.064640746 -0.04369843 0.014897288 0.025259035
0000c0 56 d8 d0 3b 89 8f 3a bd 06 3d e0 3d 9c 78 64 3d
       0.0063734455 -0.045547042 0.10949139 0.055779085
0000d0 7d 2c ff 3c 62 f9 9a bd fa f1 87 3a 13 63 85 3d
       0.031149143 -0.07567097 0.0010371797 0.065130375
0000e0 29 76 c4 3c 82 5d 0c bd d8 59 d7 bc 9f 7f db bd
       0.023982124 -0.034268863 -0.026287958 -0.10717701
0000f0 8f ed 0b 3e 3c 66 30 3c 42 25 b2 bd 89 a9 d9 3d
       0.1366484 0.010766562 -0.086985126 0.106280394

4.weight f4 [1, 64]
000000 d2 81 2d 3d 31 3c d8 bc ca 9f 9c 3d a1 0a dd bd
       0.042360134 -0.026395889 0.07647665 -0.10793043
000010 c8 d8 b9 3d bf 42 20 3d 98 e2 06 3d f6 91 e7 3c
       0.09074551 0.039126154 0.03293094 0.028267842
000020 aa 22 83 bc 97 b7 90 3d 01 1b 91 3d b0 47 bd 3d
       -0.01600774 0.07066267 0.07085229 0.09242189
000030 cb e5 c8 3d 8a 26 ad 3d 6a cd 44 bc 79 97 42 3d
       0.098094545 0.08454616 -0.012011865 0.047507737
000040 98 78 50 bd ca bb 09 be b0 e7 f9 3d 29 6d 80 3d
       -0.050896257 -0.13450542 0.12202394 0.06270821
000050 ec a1 bc bc 9b d5 ed 3d 92 fa a1 3d 8b 83 bb 3d
       -0.02302643 0.11613008 0.079091206 0.09155949
000060 15 d1 2d bd 63 cd 4a bd 50 23 08 bc 2b cc 9a bd
       -0.042435724 -0.04951228 -0.0083092 -0.07558473
000070 e8 0f f9 bd 0c 96 c5 3d 4c c3 69 bc f2 55 7f bc
       -0.12161237 0.0964776 -0.014267754 -0.015584456
000080 a5 f7 10 3d 7b 72 89 bd 94 b2 81 bd e8 23 56 3c
       0.035392422 -0.067112885 -0.06332889 0.013070084
000090 89 20 8e bd 4b 8d 77 3d 73 03 94 bd 16 d3 f9 bd
       -0.06939799 0.06043748 -0.072272204 -0.121984646
0000a0 61 77 68 bc 4e c6 bd bd 46 35 0b 3d 43 c5 1f 3d
       -0.014188618 -0.09266339 0.033986352 0.039006483
0000b0 bd d7 da 3d a0 3b aa 3d 2b a1 a7 3d 63 2a 84 3d
       0.1068568 0.08312154 0.08185037 0.06453397
0000c0 1c 5d df 3d 8f e7 fa bd f4 7a 99 bc ab aa 5f bd
       0.10906431 -0.122511975 -0.018735386 -0.05460612
0000d0 1a 6a f6 3c 1a 1c c4 bc 37 ba cf 3d 53 cf df 3d
       0.03007989 -0.023939181 0.101429395 0.10928216
0000e0 0d b0 67 bd 84 9a 36 bd 42 67 9b 3d fd ef ba 3d
       -0.05656438 -0.04458095 0.07588054 0.091278054
0000f0 d7 c6 9e 3d 3d 7b b5 3d 81 3e c0 bd 7a 9c a0 bc
       0.077527694 0.088613965 -0.09386922 -0.019605864
