best.pt (torch, 106156 bytes, 5 tensors)

0.weight f4 [128, 71]
000000 d3 77 b4 3d 0a 50 7e 3d e9 47 f8 3c 28 42 22 3d
       0.08811917 0.06208805 0.030307727 0.039613873
000010 3c 7b b0 3d 54 2b 15 3d 40 8d 7e bd be 51 1d bd
       0.08617255 0.036418274 -0.062146425 -0.038408034
000020 27 67 ba 3d b5 82 00 be c9 8b d2 bd 14 92 cb 3d
       0.09101706 -0.12549861 -0.10280568 0.099399716
000030 5c cf 0f bd bc a5 ad 3c de 5b ed bd 12 b0 aa 3d
       -0.035109863 0.021197192 -0.11589788 0.08334364
000040 b8 7a b6 3d 96 a1 bb bd 1b 3a cd 3c da c6 01 3e
       0.089101255 -0.091616794 0.02505212 0.12673512
000050 c0 2e 34 b9 1e c0 ef 3c 05 76 81 3d 0a 56 9a bd
       -0.00017183553 0.029266413 0.063213386 -0.07535942
000060 92 ba 8f bc 47 3e be bd 47 cf 8b bd 32 8c ae 3c
       -0.017545018 -0.09289222 -0.068266444 0.021307085
000070 d4 9f 4a bc 11 ff 68 3d 70 44 c9 3b 56 99 f2 3d
       -0.012367208 0.056883875 0.0061421916 0.11845653
000080 26 d3 9b bd 80 82 18 bb 62 55 04 3c 4c 66 1d 3c
       -0.07608633 -0.0023271143 0.0080769975 0.009606909
000090 6e 76 98 3d 76 15 c8 bb 02 8a 39 bd 91 ce dd bd
       0.07444464 -0.006106074 -0.04529763 -0.10830415
0000a0 65 57 ee bd 43 3c 7b bd 5d 62 00 bd 4b 13 6d 3d
       -0.11637763 -0.061336767 -0.031343807 0.057879727
0000b0 c8 b2 8f 3d 08 1f d5 3b c3 21 92 3d a8 05 60 bd
       0.07016522 0.0065039434 0.07135346 -0.054692894
0000c0 40 ed 83 bd 90 28 33 bc 87 08 a7 3d 8e 94 77 3d
       -0.06441736 -0.010934964 0.08155923 0.060444407
0000d0 2e 71 94 3d 6a a6 99 3d 8f a6 e0 3d 91 00 0e be
       0.0724815 0.07502444 0.109692685 -0.13867404
0000e0 7e cc ee 3b 44 4e 49 3d 1f fa c7 bd 6a c6 b9 bd
       0.007287561 0.049146906 -0.09764504 -0.090710476
0000f0 c8 1f a8 3d 26 e2 6d 3d 6c 2e c0 bd f1 7a 2f bd
       0.08209187 0.058077 -0.09383854 -0.042841855
000100 d8 1c d3 3b cb 28 a9 bd 82 df d4 3d 0f 88 b7 3d
       0.0064426474 -0.08259734 0.10394193 0.08961498
000110 e8 b7 9c 3c 1e 75 83 3c d3 a7 f1 bd 62 a6 7e bd
       0.019130662 0.016047057 -0.11799588 -0.062170394
000120 76 44 e7 3c e4 8c a0 bc 62 ca 5b 3c c5 e1 70 bd
       0.028230887 -0.019598432 0.013414951 -0.05880906
000130 c6 08 82 3d 03 57 44 3d 52 39 1f bd af 57 95 3d
       0.0634933 0.047934543 -0.038873024 0.07292115
000140 86 2e a9 bd e2 3f 00 3d 32 4b 30 bd c7 7b 8d 3d
       -0.08260827 0.031310923 -0.04304046 0.06908374
000150 03 c5 a9 bc b6 60 a5 3d 7d db b8 bd d1 25 c8 bc
       -0.020723825 0.08075087 -0.09026239 -0.024432095
000160 ff 26 d8 3d fe 63 b9 bc fe 01 8e bc 1b 2d a4 bd
       0.10554313 -0.022630688 -0.017334934 -0.08016416
000170 d5 fc d4 3d 89 eb 51 3d ca b2 bd bd 98 85 ee bd
       0.103997864 0.051250014 -0.09262617 -0.11646575
000180 86 9c 92 3d 88 60 e2 3c 06 0e 1d bd c4 38 8c bd
       0.07158761 0.02763392 -0.038343452 -0.06846765
000190 11 4d 72 bd 16 d3 78 bd ca a0 c5 3d 3e 8b 0a 3d
       -0.059155528 -0.060748182 0.09649809 0.033824198
0001a0 0f d0 be bc 11 46 8f bc cf ca fd bd 3c d9 5f bd
       -0.02329257 -0.017489465 -0.12392198 -0.05465053
0001b0 ba 3c 09 3e 14 f7 5b 3c 09 cd 05 be 91 6e ab bd
       0.13402072 0.013425607 -0.13066496 -0.08370698
0001c0 d6 90 0e be 6b 6e a7 bc 27 09 e2 bd b3 37 b6 3d
       -0.13922438 -0.020438394 -0.11036902 0.088973425
0001d0 0f 60 9c bd 56 e5 e6 bc f6 d5 9f 3d c3 f0 fb 3d
       -0.07635509 -0.028185528 0.07804482 0.12301781
0001e0 bb b8 ad bd b3 6b 15 bd 88 b2 ac 3d 84 68 da 3d
       -0.084825 -0.036479663 0.0843249 0.10664466
0001f0 8c a1 b5 bd 12 80 fa bd de 15 71 3d 2a 89 57 3d
       -0.08868703 -0.12231459 0.058858745 0.052621044
000200 da cd a8 bd f5 45 f8 3d 87 62 c8 3d 88 76 c0 bd
       -0.08242388 0.12122718 0.097844176 -0.09397608
000210 5d 85 3e 3d e8 02 b1 3d 6f 77 28 3c 45 ea 34 bd
       0.046513904 0.086431324 0.010282381 -0.04416873
000220 3a c4 bb bd 16 41 d4 bd 50 30 10 ba 46 37 93 bc
       -0.091682866 -0.10363977 -0.0005500363 -0.017970692
000230 44 85 9d 3d 0d ba 1f 3c b0 8b 9f bd 89 4e 7e bd
       0.07691434 0.009748948 -0.07790315 -0.062086616
000240 53 83 33 bd 15 a4 f9 3d 0c 08 60 3b af f3 8c bd
       -0.043826412 0.12189499 0.0034184484 -0.068824165
000250 09 c1 45 3d bb 00 a1 bd c0 eb a5 bd 46 a1 bf bb
       0.048279796 -0.078614675 -0.08101606 -0.0058480827
000260 0a db d3 3d 7c e7 a7 3d 66 f4 ad bc ca 3b 2d bd
       0.10344513 0.08198449 -0.021234702 -0.042293347
000270 cf cd 79 bd d0 1c 9e 3d d6 f3 79 bd 88 0d 91 ba
       -0.06098729 0.07720339 -0.061023556 -0.0011066655
000280 dc 77 80 bc 57 7a cd bd a8 f2 cb bb 13 0f 9e bd
       -0.015682153 -0.100331 -0.0062239952 -0.07717719
000290 58 13 20 3e 82 39 ac 3d 62 0c 37 bd 3e ce 96 3d
       0.15632379 0.08409406 -0.044689544 0.07363556
0002a0 57 0e d4 3c 7e a4 1a 3d ba a3 f6 3c 6f ce e8 3d
       0.025885744 0.03775453 0.030107368 0.11367499
0002b0 a7 97 0e 3d b7 d8 a4 bd 45 4f 4c 3d 7f b8 5f 3d
       0.034812596 -0.080491476 0.049880285 0.05461931
0002c0 81 71 85 bc 25 5e be 3c 77 70 bd bc 11 70 e3 bd
       -0.016289474 0.023238251 -0.023124916 -0.11105359
0002d0 6c 9c 6f bd 14 90 2d 3d b9 d8 a1 bb 1c 14 b9 3b
       -0.058498785 0.04237373 -0.0049391654 0.005648149
0002e0 29 7b 6f bd 0a aa d5 bc 2a 9c 04 3d b8 6d 51 3d
       -0.058467064 -0.026082058 0.032375492 0.051130027
0002f0 92 aa 19 3d f0 77 44 3d 2d 75 91 bd 1a 1b b2 bd
       0.037516184 0.047965944 -0.07102428 -0.086965755
000300 52 d1 07 3c 31 a8 a3 3d 68 c5 89 bb 4c e9 9d 3d
       0.008289652 0.07991064 -0.004204441 0.077105135
000310 46 97 a3 3c 9b 8b 83 3d 22 47 5f bd 93 37 3c 3d
       0.019969594 0.06423112 -0.054511197 0.045951437
000320 c3 f0 75 bd 32 44 37 3d 9d 86 f4 3c b2 09 c7 bb
       -0.06004406 0.04474277 0.029849345 -0.006074154
000330 70 6c ce 3d 96 1f b3 bd dd 76 a3 bd b8 13 9f ba
       0.100792766 -0.08746259 -0.07981656 -0.0012136614
000340 53 cd 4d 3d ac 80 09 bc 7a 4e ed 3d 53 13 b0 3d
       0.05024464 -0.008392494 0.11587234 0.08597436
000350 ee d6 84 3d bd 72 2a 3c 9d 23 96 3d 15 44 78 3d
       0.06486307 0.010403332 0.073310114 0.060611803
000360 0d ed 86 bd 32 b3 44 bd 4f 3e 96 3d 88 98 e6 3c
       -0.065881826 -0.048022456 0.07336103 0.028148904
000370 46 30 12 bd 0b 91 67 3d bd de b9 3d cd 57 bc bd
       -0.03569057 0.056534808 0.09075687 -0.09196434
000380 01 a6 ff 3d 98 88 ab 3b 76 3c a1 3d ea 8b 0c bd
       0.124828346 0.005234789 0.0787286 -0.03431312
000390 c9 f2 07 3e 14 7c 55 3d 7c d9 0f bc 75 20 77 3d
       0.13276209 0.052120283 -0.00877988 0.060333688
0003a0 57 a4 e5 3d 3e a5 16 bc 34 0c dc bb 28 7b 30 3d
       0.11212986 -0.00919467 -0.006715322 0.0430862
0003b0 46 98 4e 3d 31 4a ba 3d 8e b5 b8 bd 7e ac b7 bd
       0.050438188 0.09096182 -0.09019004 -0.08968447
0003c0 15 b0 f4 bc 51 6d f1 bc 13 2a 40 3c f8 a4 9b 3c
       -0.029869119 -0.029471071 0.011728781 0.018999562
0003d0 6a 8c 99 3d 97 65 60 bd ed ab e1 3d 54 d5 13 3d
       0.07497485 -0.054784384 0.1101912 0.036092117
0003e0 a2 0b 88 bd 6a cb ad 3d 23 9c 01 3e fb 86 3c 3d
       -0.06642844 0.08486064 0.12657218 0.046027165
0003f0 bc 0d 43 3d db ef 7a bd 1c 73 62 bd 10 0e 28 ba
       0.04762052 -0.0612639 -0.055285558 -0.0006410787

0.bias f4 [128]
000000 74 67 fc 3d 01 3b 34 bd 28 28 9f 3d 8e f9 13 3d
       0.123244196 -0.044001583 0.07771331 0.036126666
000010 4b 69 bb bd 6a df b2 bd 81 d2 ac 3d ae 1d 9f 3b
       -0.091509424 -0.08734019 0.08438588 0.004855833
000020 80 58 b1 3d 5e 4a 79 3d 08 5d 09 3e 8c 31 82 3d
       0.08659458 0.060861938 0.13414395 0.063571066
000030 aa 8b df bd b0 df db bd aa e4 9b 3d ee d3 e3 3d
       -0.10915311 -0.107360244 0.076119736 0.11124407
000040 40 e7 81 3d e8 5f 93 bd e3 83 f4 bc 42 b9 82 3d
       0.063429356 -0.07196027 -0.029848045 0.063829914
000050 7f 29 4a 3d a2 7c ec 3c ca 6f 4a bc f1 1e 58 bd
       0.04935598 0.028868023 -0.012355754 -0.052763883
000060 83 f7 55 3d 82 fc 25 3d 81 b6 d8 bd 72 5e ac 3d
       0.052238 0.040524013 -0.10581685 0.084164515
000070 1c 56 34 3c 38 72 69 3b 8e 86 9e 3d 71 8a 92 bd
       0.011006858 0.0035621058 0.07740508 -0.07155312
000080 2c a2 0c be 5b 3a c2 3d f3 bd a4 bc 01 e2 d1 3d
       -0.13733739 0.09483787 -0.020110106 0.10248185
000090 ae a2 ac bc 4d 47 cb 3d d2 ff a0 bb 11 68 96 bd
       -0.021073665 0.09925709 -0.0049133087 -0.07344068
0000a0 5d 89 e4 3d 23 86 09 3d 80 bc 21 3c ba 7d a8 3c
       0.111590125 0.03357519 0.009871602 0.020567764
0000b0 ee 21 ed bd 7a ed 92 bc 4d ba 88 3d 54 a5 46 bc
       -0.11578737 -0.017935503 0.06676159 -0.012124378
0000c0 be 5d bd 3d c4 ac da bc f6 20 1b bd b6 6a 70 3d
       0.092463955 -0.02669371 -0.03787323 0.058695517
0000d0 f8 dd 57 39 4c 2a 1d 3d f8 cd b8 3d 16 88 8c 3d
       0.00020586688 0.038370416 0.090236604 0.06861894
0000e0 75 15 33 bd 0b 0f be bd dd 11 db bc 71 e6 d4 bb
       -0.043721635 -0.09280213 -0.026741916 -0.0064971973
0000f0 72 ad 6d 3d 04 78 b9 bd c8 b7 a2 3d f0 89 a9 ba
       0.05802674 -0.09056094 0.0794521 -0.0012934785
000100 c1 80 17 bd 05 50 a7 3d d2 7a 4a 3d 98 1d 02 3c
       -0.036988024 0.081695594 0.049433537 0.007941626
000110 81 06 e2 3d c1 bd b0 3c df bc 4b 3d d4 cd 24 3d
       0.11036397 0.021574857 0.04974067 0.040235355
000120 a0 69 63 3d 50 4e 93 bd 5a cc 72 bc 68 2d 90 bb
       0.055520654 -0.07192671 -0.014819229 -0.004399944
000130 da b2 e1 3d 38 d0 c7 3c 41 ff 56 bd e7 0d c0 bd
       0.11020441 0.024391279 -0.052489523 -0.09377652
000140 d0 db ea ba 2a 73 10 be f9 8d 8a bd e2 6d 87 3d
       -0.0017918292 -0.14106432 -0.067653604 0.06612755
000150 41 b9 ba bd 73 33 b2 bd ca 07 c6 3c a1 72 13 bd
       -0.09117366 -0.087012194 0.024173636 -0.03599799
000160 26 8e 63 3c e8 f3 a9 bd 0b 14 ce bd 3f e8 dd 3d
       0.013888871 -0.082984746 -0.10062417 0.10835313
000170 8a 24 09 3d 05 f9 6f bd 72 08 5f 3d 0b b2 5b 3d
       0.033482112 -0.058587093 0.054451413 0.053636592
000180 db a0 1f bc bb df a5 3d 6d d7 1c bd e0 5b bb bc
       -0.009742941 0.08099314 -0.038291384 -0.022870958
000190 f0 35 34 3d 84 19 16 3e cd 45 bb 3d ab 79 00 bd
       0.04399675 0.14658171 0.09144173 -0.03136603
0001a0 16 5e bd bd 32 e1 ba bd 56 9a bc bd 90 f1 5a 3d
       -0.09246461 -0.09124984 -0.09209125 0.05345303
0001b0 d9 eb a6 3c 39 df b1 bd ea c0 07 be b8 0d d3 bb
       0.020376133 -0.086851545 -0.13257185 -0.0064408444
0001c0 60 ca 54 3c 30 a3 4b 39 7c 5e c8 bd b5 d2 29 bd
       0.012987703 0.0001942038 -0.097836465 -0.04146071
0001d0 61 df b4 bd 50 c4 9f bd be e2 92 bd 84 7e 0d bd
       -0.08831669 -0.078011155 -0.07172154 -0.034544483
0001e0 e0 27 e6 bd 2d d8 e5 bc 78 2a 7b bd f7 dc 44 bd
       -0.11238074 -0.028057182 -0.0613198 -0.04806229
0001f0 42 73 e2 3b 4b 57 b1 3d 1c 3f 12 be 3c a9 1f 3d
       0.0069107125 0.08659228 -0.14281887 0.038979754

2.weight f4 [128, 128]
000000 d9 4a 6c bc 9e 13 d1 bb 11 bd 96 3d 76 b6 fe 3c
       -0.014422142 -0.0063805124 0.0736028 0.031092864
000010 6a 99 ac bb b1 0e 5a bd 78 71 99 bd ac 84 df 3d
       -0.005267312 -0.053236667 -0.074923456 0.10913977
000020 dc 02 2d 3d 2e b0 a6 3d 18 f7 bd 3a fe cf 82 3d
       0.042239055 0.08139072 0.0014493195 0.063873276
000030 97 94 6c bd f9 01 5b 3d d8 9e 14 bb 3b a1 99 bd
       -0.057758894 0.05346868 -0.0022677686 -0.075014554
000040 76 9f 3f bc ee 70 3b bd 6a d4 65 bd b9 05 a7 3d
       -0.011695733 -0.045761995 -0.056110777 0.081553884
000050 20 74 5d 3d c0 af f7 bc ca ab 69 bd df 92 18 3b
       0.054065824 -0.030235171 -0.057048596 0.0023280901
000060 bd 6a 94 3d 88 bc d3 3c 66 b7 eb bc be 70 87 3d
       0.07246921 0.025846735 -0.028773975 0.06613301
000070 80 e9 a2 3d e4 66 56 bd d7 2b 21 bd 8d 91 53 3d
       0.07954693 -0.052344218 -0.03934845 0.05165248
000080 6e 95 c2 3c 14 6f 2f bd f4 5b e3 3c d7 c1 99 bd
       0.023752894 -0.04283054 0.027753808 -0.07507675
000090 92 88 56 3d d6 b2 e9 3c 74 40 08 3d 2e 09 d6 3b
       0.052376337 0.028527658 0.033264592 0.006531856
0000a0 dc 41 26 bd 2c 02 ad 3d d8 79 90 3d 75 af 9a bd
       -0.040590152 0.0844768 0.0705449 -0.07552997
0000b0 50 f2 34 3d 44 83 34 bc a9 b6 e3 bc 93 e3 81 bd
       0.0441764 -0.011017624 -0.02779706 -0.063422345
0000c0 c4 58 ca bc 2c de 6d bd 9c f5 f5 bc a8 06 96 bd
       -0.02470053 -0.058073208 -0.030024342 -0.07325488
0000d0 60 3b c6 bd 40 32 38 3d 09 7d 91 3d 08 8f 49 bd
       -0.09679294 0.044969797 0.07103927 -0.04920867
0000e0 02 42 da bc 98 40 97 3b a4 1d 62 bc 1d d7 9a bd
       -0.026642803 0.0046158545 -0.013801012 -0.07560561
0000f0 64 49 7a 3d d5 00 80 bc 73 41 bc 3d 0e 96 12 3d
       0.061105147 -0.015625397 0.09192171 0.035787635
000100 dc f3 b5 3c 13 9c 5c 3d 00 d7 33 bb 35 c5 8c bd
       0.022211008 0.05385978 -0.0027441382 -0.06873552
000110 d8 b0 a6 3d 58 92 04 3d b0 e8 26 3d a6 80 4a 3d
       0.08139199 0.032366127 0.04074925 0.049439095
000120 e2 79 ec bc 64 e3 ad bd 4b 69 73 3d 6c ed 01 3c
       -0.028866712 -0.08490637 0.059426587 0.007930141
000130 c3 a1 54 3d b6 2c 50 3c 9a 1a bc 3c 96 be 65 bd
       0.05191208 0.012705972 0.022961903 -0.05608996
000140 ce 4c 0c bc 79 0c 47 bd 9f 62 b4 3d 98 8a c1 3c
       -0.008563234 -0.04859588 0.08807873 0.023625657
000150 2a 3f bf 3b 52 71 4f bd 46 17 b0 bc ca 7f 36 bd
       0.005836387 -0.05064518 -0.021495473 -0.044555463
000160 b2 94 67 3c 14 68 58 3d 84 6e 47 3d d4 36 b5 bb
       0.014134573 0.05283363 0.04868938 -0.0055302177
000170 a2 74 3e bd 58 b0 3a 3d 33 e7 8e bd 38 a5 a5 bd
       -0.04649795 0.04557833 -0.069776915 -0.080881536
000180 e1 86 4f 3d b6 61 b5 3c 27 ae b9 3d 17 d7 ac 3b
       0.05066574 0.022141319 0.0906642 0.005274664
000190 c3 50 92 3d 1c 43 87 bd 96 60 37 3c eb aa 29 3b
       0.0714431 -0.06604597 0.0111924615 0.0025889229
0001a0 7e d1 c5 bc 77 58 4f 3d 2d f7 01 3d 2b 35 3c bc
       -0.024147745 0.050621476 0.031729866 -0.011487286
0001b0 b9 10 a8 3b 1a 93 20 bd 18 dd 46 bc ec 65 57 bd
       0.0051289466 -0.039202787 -0.012137674 -0.052587435
0001c0 66 11 18 3d 23 be 6e bd d0 dc 36 3c 72 c2 2f bd
       0.037125967 -0.058286797 0.011161044 -0.042910047
0001d0 d7 7f 6a bd 47 dd 4e 3d 4c bd fb bb bc 68 9d bd
       -0.057250824 0.050503995 -0.007682478 -0.07685992
0001e0 37 dc 79 3d a9 f3 c5 bc 04 6a cc bc a5 c6 1b 3d
       0.06100103 -0.024164038 -0.024952896 0.03803124
0001f0 70 a7 34 bd 31 d5 e5 bb 96 54 44 3d 78 5f 10 3d
       -0.044104993 -0.00701394 0.04793223 0.035247296
000200 5a 6d c4 3c 40 6c ab 3d 11 3f 16 bd 24 de 6e 3d
       0.023977924 0.083702564 -0.03668124 0.05831732
000210 37 18 e5 3c 12 e3 16 bd 95 8b 77 bd 90 f5 f3 3d
       0.027965648 -0.036837645 -0.06043585 0.11912072
000220 25 5d 43 bc ea ab 90 bd 94 8b bc bd 4a 37 22 3d
       -0.011924063 -0.0706404 -0.0920631 0.03960351
000230 e3 e9 88 bd aa 58 cc 3c 81 76 48 bd d0 6d ff bb
       -0.06685235 0.024944622 -0.04894114 -0.007795073
000240 4e 31 bb bd 37 a4 85 3d 00 d0 60 3b 4e 4e 35 3c
       -0.091402635 0.06525462 0.0034303665 0.011066033
000250 f2 38 68 bd 8f 85 be bc 5e 51 09 3c f8 e4 15 bd
       -0.056694932 -0.023257045 0.008381216 -0.036595315
000260 e3 fd ec bc d7 4d 10 bc ce 1a 45 bd d4 e5 02 3d
       -0.028929656 -0.008807621 -0.048121266 0.031957462
000270 7e 07 bd 3d 61 78 e8 bd 84 4b 2a 3c 80 81 32 3c
       0.09229945 -0.113510855 0.010393981 0.010895133
000280 04 06 19 bd 70 34 13 3a 59 98 7d bd 07 18 80 bd
       -0.037359253 0.0005615419 -0.06191287 -0.06254583
000290 c2 81 25 3c a2 5c ca 3c c0 0c 1c ba 34 24 b3 bc
       0.010101737 0.024702374 -0.00059528276 -0.021867849
0002a0 0b bb 8a bd fb 9f 76 3c 40 d5 8d 3d cc 87 97 bd
       -0.06773957 0.015052791 0.0692544 -0.07398948
0002b0 77 ff cb bb 6c bb d8 bc ac 94 77 3c f8 e5 3b 3d
       -0.006225522 -0.026456557 0.01511113 0.045873612
0002c0 be e8 af bd c9 e2 99 bd 64 b9 58 bb 32 17 26 bd
       -0.08589314 -0.07513959 -0.0033069486 -0.040549465
0002d0 82 d4 fb 3b 6e 02 96 bb b6 84 94 bc 92 28 61 bd
       0.007685245 -0.0045779264 -0.018129688 -0.05497033
0002e0 8d 8b 8a bd 14 33 a6 3d 2e b9 12 bd fe 2b 8e bc
       -0.067648984 0.08115211 -0.035821132 -0.017354961
0002f0 23 8a 7b 3d d0 24 5d 3d a5 28 b2 3d 8b 57 01 bd
       0.061411034 0.053990185 0.086991586 -0.031577628
000300 ea 4c fe 3b 97 93 97 3b d4 0d b0 bd 94 d3 d1 3b
       0.0077606337 0.0046257484 -0.085963875 0.006403396
000310 8b 8c 8a 3d 58 09 9f bb 34 0c 96 3d 70 66 13 3c
       0.06765088 -0.004853409 0.07326546 0.008996591
000320 23 32 9d 3d 60 17 5d bd 94 30 14 bd 04 c2 4e ba
       0.076755784 -0.05397737 -0.03617914 -0.0007887187
000330 ec e0 78 3c 03 2e 58 bd 66 8b 31 bb 54 8e 38 3d
       0.015190344 -0.052778255 -0.0027091145 0.04505761
000340 41 6d a3 bd 21 65 c7 bd 61 cd 91 3d 7a 13 f8 bc
       -0.07979823 -0.09736086 0.07119251 -0.030282725
000350 48 12 8a bd 19 a8 8c 3d 10 11 f9 3c 72 d8 98 3d
       -0.06741768 0.068679996 0.030403644 0.07463159
000360 c0 96 ad bd f1 80 48 3d 54 11 be bb 52 47 84 bd
       -0.08476019 0.048951093 -0.0058004055 -0.06458916
000370 87 e0 cc bc 79 39 18 bd 23 3e 28 bd 4c 89 e5 3d
       -0.025009407 -0.037164185 -0.041074883 0.11207828
000380 7e 40 aa 3d 24 6a 5b bd ff ae b7 3d 28 2c 18 bb
       0.08313082 -0.05356802 0.08968925 -0.0023219679
000390 75 81 3b bc 28 bc a2 bd 21 57 c6 bc 01 6f e5 bc
       -0.011444439 -0.07946044 -0.024211468 -0.028007032
0003a0 92 a5 77 3d 25 a3 e3 ba c2 f7 ee 3c 8d 51 f9 bc
       0.060460635 -0.0017367346 0.029170875 -0.030434394
0003b0 80 08 bb bd 6a 09 66 3d eb 1d a1 3d 7e 7a 26 3d
       -0.091324806 0.05616132 0.078670345 0.04064416
0003c0 63 33 bb bd 94 25 d8 bc 59 48 44 bd 0f fd 09 3d
       -0.091406606 -0.026385106 -0.04792056 0.0336886
0003d0 db d9 99 3c 18 17 48 bd 3c c2 44 bd 7a 1f 79 3d
       0.01878064 -0.04885015 -0.0480368 0.060821034
0003e0 f7 04 58 bc 6f 6c f4 bd c0 3d 95 3c 84 97 a8 bb
       -0.013184777 -0.119347446 0.018217921 -0.005145015
0003f0 c3 f8 ef bc 92 47 78 3d 7e 05 6a bd 0d 1c ee 3d
       -0.029293424 0.06061513 -0.057134144 0.11626444

2.bias f4 [128]
000000 5b 52 21 3d 48 f9 8a bc f4 3b 3e bd 3b 94 8b 3d
       0.03938518 -0.01696457 -0.046443895 0.06815382
000010 22 b2 62 3d 86 ca 86 3d 60 28 44 3d 5c 08 7a bc
       0.055345662 0.06581597 0.047890067 -0.015260782
000020 c4 e9 a8 bd 45 42 13 bd 63 b0 66 bc d5 2a 4e bd
       -0.08247712 -0.03595187 -0.01408014 -0.050333817
000030 d1 1b 7b bd c6 d9 a4 bd 2a 8b 9a bd 00 42 e5 b8
       -0.061305825 -0.080493495 -0.07546075 -0.000109318644
000040 1a 1b 32 3c f2 20 2c bd 10 58 d5 ba 20 0c 7d 3b
       0.010870719 -0.042023607 -0.0016276855 0.0038611963
000050 35 af 70 3d 30 0f 06 bd 00 ba 06 ba 30 40 ac bd
       0.05876084 -0.032729328 -0.00051394105 -0.0841068
000060 bc e1 2c bd 7e 78 99 bd 39 81 0e bb 8e 3e 7b 3d
       -0.042207465 -0.07493685 -0.0021744503 0.061338954
000070 44 fc 2a bd 66 a3 74 bd 0a ba 42 3d a4 56 c1 bc
       -0.041744485 -0.05972614 0.047540702 -0.023600884
000080 98 a6 a2 3c c4 60 92 bd ab 59 9e 3d ab 02 b4 3c
       0.019854829 -0.07147363 0.077319466 0.021973928
000090 3e 7b 52 3d 95 80 d8 3c e4 63 9b bc bb ca 9f 3d
       0.051387064 0.0264285 -0.01896853 0.0780234
0000a0 ae 3d 2f 3d 9e 90 a6 3d 42 86 73 bd 52 52 01 3d
       0.04278343 0.08133052 -0.05945421 0.031572647
0000b0 d9 a6 66 bd 9c b3 aa bb 8e 4e 4d 3c 39 48 2d 3d
       -0.056311462 -0.0052093994 0.012530936 0.042305205
0000c0 1b 4b 65 bd 1a d1 bf 3c 9a be 36 3d fb a6 d5 3d
       -0.05597983 0.023415137 0.044615366 0.104322396
0000d0 cf 6c 85 bd dc 71 d1 bc e2 40 21 bd 9d 06 c8 bc
       -0.06514894 -0.025566988 -0.039368518 -0.024417216
0000e0 f2 b7 28 bc 72 37 3e 3d 15 33 5c 3d dd de 99 bd
       -0.010297762 0.046439596 0.053759653 -0.07513211
0000f0 5b 09 97 bb 9e c3 00 3c 3a 3b 2c bd 1a 09 ca 3c
       -0.0046092696 0.007859139 -0.04204867 0.024662543
000100 18 2c 87 3c 6a 2c 9a bd e0 67 c0 bd 74 73 87 bc
       0.016500518 -0.075280026 -0.093948126 -0.016534545
000110 25 ba 06 bd 00 5d 6e bd f8 f7 dd ba 7c 01 dc 3d
       -0.032892365 -0.05819416 -0.0016934862 0.107424706
000120 97 91 a9 bc fc b1 58 3c 6c 20 8f bc 7f d1 25 3d
       -0.020699305 0.0132260285 -0.017471515 0.040482994
000130 cd 31 34 bc 7d 3c 0c bd dd 61 ae bd eb b6 b9 bc
       -0.010998202 -0.034237374 -0.0851476 -0.02267023
000140 82 fb a5 bd 16 b3 23 3d d6 e2 9d 3d 49 ad 9f bd
       -0.08104612 0.03996571 0.07709281 -0.077967234
000150 c5 a5 93 3d 8b 2a 67 bd 1c 41 04 3c 9e 88 d9 3b
       0.072093524 -0.056437057 0.008072164 0.0066386005
000160 bd ff 90 bd 0c 10 bf bd 64 3b 8d bd 97 a6 78 bd
       -0.07080028 -0.093292326 -0.068960935 -0.060705747
000170 de 59 91 3d a9 ee bc 3d 1b 04 ac bd 6e 74 18 3d
       0.07097219 0.09225208 -0.083992206 0.03722041
000180 57 2c 66 3d 3c 9f d4 bd 10 78 3e 3d 61 8b ab 3c
       0.05619463 -0.10381934 0.04650122 0.020940484
000190 40 4f 14 b9 09 3e ef bc a2 ba 71 bc 6f 23 cf 3c
       -0.00014143903 -0.029204385 -0.014753969 0.02528545
0001a0 88 9d 45 3d b9 db 52 bd d3 63 40 3d bb 60 6b 3d
       0.048245937 -0.051479075 0.0469702 0.057465296
0001b0 ce c2 99 bd 61 8e 9f bd b7 70 65 3d aa 32 fa bb
       -0.07507859 -0.077908285 0.056015696 -0.007635434
0001c0 bc c6 4a 3d 95 2d 98 bc 9e d3 90 3c ca 77 a2 3d
       0.049505934 -0.018576423 0.017679032 0.07933004
0001d0 35 48 fa 3d 9a 59 ba 3b b0 99 7f 3c 9d 1f 23 bd
       0.12220804 0.005686951 0.015600607 -0.03982507
0001e0 43 26 7f bd ce 57 ab 3d 3c 45 ab bd 7e 7e 9e bd
       -0.06229235 0.08366357 -0.08362815 -0.0773897
0001f0 c4 39 de bc 5c 28 87 3d 4d fb a8 3d 28 31 9a 3d
       -0.027127154 0.06599495 0.08251057 0.07528907

4.weight f4 [1, 128]
000000 71 46 8a bc ef 38 58 bd 7e e4 0e 3d 50 96 c7 3d
       -0.016879292 -0.05278867 0.034885876 0.09745467
000010 0a f5 b4 3c 2c 59 a8 bd 10 3e 88 bc e9 40 ad 3d
       0.0220895 -0.08220133 -0.016631156 0.08459646
000020 88 81 34 3c 2a ef 8e bd 80 09 94 bd c8 b4 96 3d
       0.011017211 -0.06979211 -0.072283745 0.073587
000030 45 e8 a3 3d 2c ef 0b 3d c6 b8 84 3b 75 09 05 bd
       0.08003286 0.03416364 0.004050347 -0.032479722
000040 96 d1 56 bc bb 80 3f 3d 96 58 8c bd 44 ea 5e 3b
       -0.013111493 0.046753626 -0.06852834 0.0034014145
000050 3e 0b 29 3d e9 5e 4b 3c 93 a0 79 3d c3 03 18 3d
       0.041270487 0.012412765 0.06094415 0.037112962
000060 fe 9b 6d bc 01 02 94 3d 9d 7e 75 bd db 36 3c bd
       -0.0145025235 0.07226945 -0.0599352 -0.04595075
000070 d8 e5 55 3b 30 6c 00 bd 10 5b 17 3a a4 3b 57 3d
       0.0032638218 -0.031353176 0.0005773762 0.052547112
000080 e1 03 34 bc 50 84 48 3d 1c ab e0 3c 3f 22 14 bd
       -0.010987253 0.048954308 0.027425341 -0.036165472
000090 b3 8b 9d bd 93 ee ad bd e9 80 2c bd 3f c1 07 bd
       -0.07692661 -0.0849277 -0.042115126 -0.03314328
0000a0 a6 95 52 3d 22 f3 18 bd 92 ed 54 bd f0 07 1b bd
       0.051412247 -0.037341245 -0.051984377 -0.037849367
0000b0 a2 1e 86 bd f8 5a 98 bd 45 7f 45 bd 2e a2 e1 3c
       -0.065488115 -0.07439226 -0.048217077 0.027543154
0000c0 de 38 68 bd 6a af 44 3c c5 54 62 bd 41 d6 5c 3d
       -0.056694858 0.012004713 -0.055256624 0.053915266
0000d0 44 9a af 3b 45 bb a2 bd b4 e9 b2 bd 25 be 98 3d
       0.005358966 -0.07945875 -0.087359816 0.07458142
0000e0 11 0a 33 bd 7b 3a 27 3c 98 26 18 bb 4d 39 4d 3d
       -0.043710772 0.010206814 -0.0023216363 0.050103474
0000f0 a0 81 24 bd e0 83 c0 bc fb 7c 80 3d 63 4f ff 3b
       -0.040162683 -0.023500383 0.06273838 0.007791446
000100 82 ae 6c bd f2 b3 7a bd a0 7f ba bd 2c 66 8d bd
       -0.05778361 -0.061206765 -0.09106374 -0.06904253
000110 1f 7b a5 bd a2 60 bc bd fe 87 9c bd bc b1 bb 3c
       -0.08080124 -0.09198119 -0.07643126 0.022911899
000120 5b d7 06 bd be 28 26 3c de f2 73 3d d2 19 8a bd
       -0.032920223 0.01014155 0.059557788 -0.06743206
000130 8c 41 48 3d 2a 32 c8 bd 70 b3 7a 3b 8a 16 c6 bc
       0.048890635 -0.09775193 0.0038253926 -0.02418067
000140 a0 e0 85 bd d7 3c 00 bc ec cf cb bc d6 37 2b 3d
       -0.065369844 -0.007827005 -0.024879418 0.041801296
000150 22 cb 23 3c ee 65 97 3d 50 88 09 39 70 61 2c 3c
       0.009997161 0.073924884 0.00013116118 0.010521278
000160 32 60 96 3c f6 c1 0c bc 48 a6 64 3d 11 0a a5 3b
       0.018356416 -0.008591166 0.05582264 0.0050366004
000170 94 79 5b 3b 8c 07 e9 3a 98 c0 a5 3c f2 d9 04 3c
       0.0033489214 0.0017778738 0.020233437 0.008108603
000180 b0 13 f3 bc cf 30 d1 bd 18 72 6e bd 1e 8c 1a bc
       -0.029672474 -0.102143876 -0.058214277 -0.009432821
000190 ef 8a d4 3c 2d d7 ca bc ec 69 86 3c a8 d3 91 bd
       0.025945155 -0.024760807 0.01640793 -0.07120448
0001a0 52 3d 99 bc 78 e1 91 ba 1d 90 98 bc 9b 29 38 3d
       -0.018705998 -0.0011129817 -0.018623406 0.044961553
0001b0 de 42 42 3d 7c 1c 06 3d 56 a9 b2 bc c2 07 1b 3d
       0.04742705 0.03274201 -0.021809261 0.037849195
0001c0 de 3a 4e 3d 8e ad 30 bc 72 31 3e 3d 79 69 9e 3d
       0.05034911 -0.010783566 0.046433873 0.07734961
0001d0 6d a4 9e 3d 41 fb bd 3d 54 42 b8 3c a8 38 2e bb
       0.077462055 0.092764385 0.022492565 -0.0026584063
0001e0 86 8b a3 3d b1 cf 07 bd 17 77 43 3d 0f 7c 3b 3d
       0.07985596 -0.033157054 0.047720995 0.04577261
0001f0 d9 53 23 3d 40 58 4c bd 9e 5c bf 3d 4e be 09 3d
       0.039874885 -0.04988885 0.09343837 0.033628754
