best_model_gen_7.pt (torch, 47010 bytes, 5 tensors)

0.weight f4 [64, 106]
-0.08474801 -0.0054120338 0.039157983 -0.05905056 -0.03547321 -0.06043566 0.009311279 0.003323128
0.012963771 0.0022514495 -0.11480837 0.0868946 0.062181413 -0.08682357 0.040684115 0.08912939
0.004300118 0.06239254 0.013677174 -0.09999003 -0.048304163 0.07675148 0.050717216 0.0027902573
-0.05909907 0.0592603 -0.07014382 0.056288395 -0.12795825 -0.009376208 0.024867605 -0.026094943
-0.0131301675 0.089599505 -0.0044712527 -0.05357677 0.10129255 0.07996506 0.09454139 -0.040744245
-0.036032062 0.12067437 -0.018012771 0.058250614 0.034576077 0.027780574 0.0015611686 0.05441986
0.01925892 -0.09225389 0.07085518 -0.019237384 -0.027787242 -0.043005273 0.018889654 0.030484054
-0.001402142 0.008189214 -0.01517205 0.01736037 -0.049933683 -0.06459169 0.095122874 -0.042485736
-0.054283258 -0.037426278 -0.027733602 0.06697761 0.06424387 -0.08631656 0.09052056 0.084594056
0.014327199 0.07038994 0.007063621 0.07192448 -0.024410903 -0.09010413 0.07726623 -0.08622885
0.09064177 -0.07476828 -0.03574908 0.12899482 -0.01797813 -0.088044494 0.023204617 -0.026778733
0.0060187937 -0.07096063 -0.104630336 -0.046608835 0.012491627 0.034763604 -0.06961047 -0.057038583
-0.09499614 -0.008506787 -0.028722532 -0.019660369 0.07062929 -0.07237212 -0.0076148408 -0.032179
0.08392589 -0.09309054 -0.095718235 -0.06464516 -0.004654512 -0.004330998 0.11440125 0.04681263
0.08472296 -0.09915135 0.027017605 0.059696406 0.057918083 0.02969955 0.0069454657 -0.08956686
0.07336273 0.03122394 0.054055005 -0.055902973 -0.006886355 0.032240517 0.053717315 0.093618214
-0.024203133 -0.015959438 -0.047844894 0.05139487 -0.064734004 -0.05200515 0.009323335 -0.02782459
-0.09333731 0.03899552 -0.018434735 0.015061113 0.04344166 0.045353916 0.079425715 0.013237101
0.02086584 0.028789092 0.021908997 0.01508654 -0.021848772 0.07200192 -0.034076054 -0.007474391
-0.034308136 0.06977983 0.009949987 0.013588518 0.07875782 0.01912405 0.030623117 0.025886381
-0.03232855 0.082805626 0.021833802 0.08952252 0.028365634 0.10071364 -0.086546004 0.0002094889
0.09377571 0.09834845 -0.116579786 0.058865312 -0.068639226 -0.040825125 0.060369898 0.015604846
-0.09234896 -0.11135323 -0.0737431 0.08958692 -0.020720977 -0.056133416 0.10891892 -0.0006454044
0.082909144 0.000860528 -0.0445163 -0.07562304 -0.03644231 0.027710415 -0.0238642 -0.09619832
0.027458739 0.04664877 0.10610658 0.07944613 0.06616505 0.035343613 0.06790546 -0.025732605
0.08079769 0.029971441 -0.09329428 0.015291831 0.058665257 0.10108819 -0.045468975 0.08141677
-0.064190105 0.045597617 0.0063313246 0.078499466 0.039991464 0.0533772 0.0636823 -0.10344971
-0.08386181 0.06549166 0.096107036 -0.076137096 0.075235456 0.026384491 0.08383626 0.012614318
0.050970268 0.003093738 0.016412657 0.102873385 -0.09093254 -0.053585026 0.13144898 0.012069754
0.08606158 -0.0011731274 -0.08405811 0.06189345 0.008300173 -0.009565365 0.111997604 0.05746241
-0.015479942 0.027088799 -0.06602756 -0.05324674 0.09194551 -0.024024842 -0.045514643 0.028267892
-0.09028052 0.028822761 -0.047314472 -0.072611764 0.061063476 0.056604385 -0.07182175 0.073965944
00000000: 5d90 adbd 6e57 b1bb 1f64 203d 00df 71bd
00000010: 5b4c 11bd 628b 77bd 568e 183c d6c8 593b
00000020: ff65 543c 0e8d 133b a720 ebbd ccf5 b13d
00000030: f0b1 7e3d 8ed0 b1bd 63a4 263d 7889 b63d
00000040: 01e8 8c3b 528f 7f3d 3a16 603c 93c7 ccbd
00000050: 96da 45bd e12f 9d3d dbbc 4f3d c0dc 363b
00000060: de11 72bd eeba 723d 90a7 8fbd a98e 663d
00000070: 7d07 03be ab9e 19bc 26b7 cb3c 10c5 d5bc
00000080: ea1f 57bc f27f b73d 9683 92bb 5173 5bbd
00000090: 7872 cf3d b9c4 a33d eb9e c13d 70e3 26bd
000000a0: 5b96 13bd 2024 f73d 858f 93bc 3298 6e3d
000000b0: a59f 0d3d 1694 e33c 20a0 cc3a 5ce7 5e3d
000000c0: e2c4 9d3c 9cef bcbd 851c 913d b897 9dbc
000000d0: 12a2 e3bc 4c26 30bd 7abe 9a3c b2b9 f93c
000000e0: 14c8 b7ba 0e2c 063c 3194 78bc 5637 8e3c
000000f0: 4387 4cbd a648 84bd c8cf c23d 8605 2ebd
00000100: 1f58 5ebd 4c4c 19bd 9431 e3bc 8f2b 893d
00000110: 4a92 833d bdc6 b0bd d862 b93d a63f ad3d
00000120: a1bc 6a3c 9a28 903d f375 e73b 244d 933d
00000130: 60f9 c7bc 8488 b8bd c23d 9e3d c098 b0bd
00000140: 64a2 b93d 1d20 99bd a16d 12bd 3817 043e
00000150: df46 93bc ac50 b4bd 9c17 be3c 135f dbbc
00000160: 4d39 c53b cf53 91bd 6e48 d6bd e8e8 3ebd
00000170: aea9 4c3c 4864 0e3d ef8f 8ebd 4aa1 69bd
00000180: 568d c2bd 0d60 0bbc 844b ebbc c80e a1bc
00000190: 17a6 903d d637 94bd ea85 f9bb 21ce 03bd
000001a0: 56e1 ab3d 41a6 bebd ec07 c4bd af64 84bd
000001b0: e084 98bb 0beb 8dbb 344b ea3d 9abe 3f3d
000001c0: 3b83 ad3d dd0f cbbd 0654 dd3c 3884 743d
000001d0: 833b 6d3d 784c f33c ca96 e33b d46e b7bd
000001e0: 333f 963d 59c9 ff3c c868 5d3d 84fa 64bd
000001f0: efa6 e1bb a20e 043d b006 5c3d e8ba bf3d
00000200: a645 c6bc 5ebd 82bc 02f9 43bd 6d83 523d
00000210: 4393 84bd 5a03 55bd e7c0 183c 65f0 e3bc
00000220: a227 bfbd c4b9 1f3d 7104 97bc e3c2 763c
00000230: e2ef 313d 07c5 393d f3a9 a23d 6de0 583c
00000240: d7ee aa3c 1ad7 eb3c 7f7a b33c 892d 773c
00000250: 32fc b2bc be75 933d 5593 0bbd bceb f4bb
00000260: b086 0cbd bae8 8e3d 4505 233c 60a2 5e3c
00000270: c84b a13d 0aaa 9c3c 55dd fa3c ad0f d43c
00000280: f16a 04bd ff95 a93d cddc b23c 9557 b73d
00000290: 0c5f e83c f442 ce3d 083f b1bd 40aa 5b39
000002a0: 7b0d c03d ea6a c93d 62c1 eebd c11c 713d
000002b0: b992 8cbd 3f38 27bd 6d46 773d 78ab 7f3c
000002c0: 7421 bdbd 2a0d e4bd 9f06 97bd 5979 b73d
000002d0: 0abf a9bc 27ec 65bd e210 df3d 5b30 29ba
000002e0: 45cc a93d 0e95 613a b956 36bd 41e0 9abd
000002f0: 8844 15bd f400 e33c db7e c3bc a003 c5bd
00000300: 26f1 e03c c812 3f3d 684e d93d a7b4 a23d
00000310: 8b81 873d 77c4 103d 0512 8b3d 2fcd d2bc
00000320: 4279 a53d ab86 f53c 1211 bfbd 978a 7a3c
00000330: fb4a 703d 5307 cf3d ad3d 3abd d6bd a63d
00000340: 1a76 83bd 91c4 3a3d 0077 cf3b 54c4 a03d
00000350: 17ce 233d 0da2 5a3d de6b 823d 71dd d3bd
00000360: bebf abbd 7e20 863d c4d3 c43d c4ed 9bbd
00000370: 0c15 9a3d 4a24 d83c 58b2 ab3d 49ac 4e3c
00000380: 33c6 503d 50c0 4a3b d673 863c 48af d23d
00000390: d73a babd f97b 5bbd 909a 063e 38c0 453c
000003a0: 0e41 b03d a0c3 99ba a926 acbd fc83 7d3d
000003b0: 73fd 073c 0cb8 1cbc 005f e53d b45d 6b3d
000003c0: 959f 7dbc 54e9 dd3c 7539 87bd 4119 5abd
000003d0: ed4d bc3d bfcf c4bc 906d 3abd 1192 e73c
000003e0: fee4 b8bd b61d ec3c d2cc 41bd 7ab5 94bd
000003f0: b21d 7a3d 00da 673d 4817 93bd 757b 973d

0.bias f4 [64]
-0.011153905 0.032210503 -0.013124843 0.07072484 -0.03774464 0.053603206 0.042594112 -0.006971212
0.03612919 -0.05776334 -0.007590573 -0.054873593 -0.0056356075 0.018414877 0.05169748 -0.007855456
0.08570756 0.07478853 0.05566543 -0.040933944 0.086489044 -0.026799425 0.011221307 0.015880493
0.055309497 -0.027062014 0.0886178 -0.025462357 -0.031871103 0.11922501 -0.088616155 -0.060928028
0.06672064 -0.06326685 -0.06759854 0.0836491 0.054224256 0.031978585 0.09834835 0.019874334
-0.089829996 -0.05971273 0.09171716 0.052617468 -0.08500325 -0.04710598 -0.07189138 0.0659808
0.08850095 0.028332246 0.057783127 -0.03413711 -0.017982386 0.03539058 0.078410566 0.03261574
-0.022681003 0.06920703 -0.04011562 0.038025934 0.029929463 0.014092555 0.07339541 0.07239164
00000000: debe 36bc 29ef 033d 9509 57bc 2fd8 903d
00000010: 209a 1abd 098f 5b3d 2a77 2e3d c46e e4bb
00000020: 34fc 133d 4199 6cbd 57ba f8bb 22c3 60bd
00000030: e7aa b8bb ccda 963c bdc0 533d 2cb4 00bc
00000040: 7287 af3d bb2a 993d 6f01 643d 5aaa 27bd
00000050: 2b21 b13d 788a dbbc 93d9 373c cf17 823c
00000060: 368c 623d 28b1 ddbc 407d b53d 6f96 d0bc
00000070: 468b 02bd 3e2c f43d 637c b5bd ab8f 79bd
00000080: d5a4 883d 0d92 81bd 1a71 8abd 3850 ab3d
00000090: 411a 5e3d fafb 023d dc6a c93d 80cf a23c
000000a0: caf8 b7bd 5695 74bd 35d6 bb3d 6a85 573d
000000b0: 2f16 aebd 33f2 40bd ca3b 93bd f120 873d
000000c0: fc3f b53d 0719 e83c 00ae 6c3d 5bd3 0bbd
000000d0: cc4f 93bc b6f5 103d b895 a03d 1598 053d
000000e0: 83cd b9bc 6abc 8d3d 4750 24bd 15c1 1b3d
000000f0: a22e f53c 76e4 663c 5550 963d 1142 943d

2.weight f4 [64, 64]
-0.084195375 0.10076051 0.1088827 0.010275563 0.11837467 0.094929546 0.07435086 0.09362333
-0.07998783 0.03962347 -0.1289788 0.05302123 0.09594663 -0.09522997 -0.04645106 0.1118668
-0.045349844 0.030420471 -0.12984724 0.008838875 0.017386144 -0.03128986 -0.06432377 -0.04843688
0.09570101 -0.0015954189 -0.08763927 -0.12165277 0.030096456 0.07739907 0.12225253 -0.052440878
-0.030006438 -0.08530133 0.06850389 -0.049790695 0.009518992 0.06826165 -0.054709703 0.0475215
0.069802925 0.031313483 0.09260645 -0.006353028 -0.072773226 -0.025074322 -0.11030401 0.14054745
-0.090944216 -0.04261242 -0.10308208 -0.16521089 -0.039490238 0.10502983 -0.122023396 0.004286915
0.1277087 -0.0048940885 0.03951653 0.117124915 -0.054693628 0.056893054 0.094629824 0.07063339
-0.023120508 0.041935697 0.039585378 -0.14056565 -0.046393506 -0.0140786255 -0.020785432 -0.06994712
-0.06622033 -0.054777816 0.07381712 -0.007338286 0.07080873 -0.14393654 0.0035887896 0.15275398
0.09899516 0.038444076 0.0032086172 -0.09485915 0.05798698 -0.0877628 0.03876412 0.06260276
-0.036606647 -0.021468742 -0.06989134 -0.054391764 -0.005665213 -0.104402415 -0.06383702 0.024035934
0.015540924 0.066680305 -0.046792645 0.059867375 -0.02601943 0.12018478 -0.07002485 -0.08797641
-0.043696977 -0.12281608 -0.047122046 -0.061777905 -0.11342883 0.07581494 -0.09212909 0.063333526
0.012432514 0.006095355 0.0653269 0.07699003 -0.016185403 0.094156116 0.11017475 -0.10425079
-0.048595615 0.024144517 0.115816355 0.09412256 0.09598383 -0.11018763 -0.045390353 0.09181975
-0.05084876 -0.060016207 0.117158145 -0.02818672 -0.088338785 0.09068223 -0.11162813 0.07798887
-0.109233476 -0.047879204 -0.12109378 0.02405382 -0.1011186 0.020437576 0.064934455 -0.005984642
-0.085073784 0.1159547 0.07085078 0.048896316 0.06480908 -0.06582565 -0.08656847 0.027029904
0.10755059 -0.029585727 -0.007156795 -0.07059921 0.02156465 -0.03484779 -0.05255252 -0.021665817
0.12146589 -0.1173997 -0.01691651 0.06185108 -0.097713634 0.015318519 0.11405979 0.072931044
-0.051186398 0.018080257 -0.005284261 -0.010836195 -0.043975808 0.0731691 -0.023227379 -0.042717487
-0.041909833 -0.054331508 0.0370257 -0.099492416 -0.05148955 0.112930685 0.03964418 -0.060266096
0.04212843 0.066999525 -0.08895149 -0.036395743 0.065954596 0.13124184 -0.01989824 0.05423256
0.13831769 -0.042913403 0.054627582 -0.037190154 0.022488574 -0.10415472 0.055928774 0.1034025
0.078318946 0.1144617 0.07388809 0.006035343 0.08628755 -0.081012435 0.006473739 0.07101674
-0.084785074 -0.07655972 0.103652865 0.06705229 0.0486329 -0.089563966 -0.041231416 -0.12110646
0.08572064 -0.09056209 -0.07993457 -0.06481056 -0.019018654 -0.07203144 0.11778989 -0.045859564
-0.012605131 0.016036872 0.06900795 0.06474988 -0.08945656 -0.035462454 -0.07186892 0.09010166
-0.05883545 0.018585522 0.09317719 -0.046236165 0.043238826 -0.039063193 -0.0127659235 0.021011773
0.089716695 0.0080710305 -0.06293284 -0.10281557 -0.035877388 0.14185758 0.10020929 0.1120953
0.10571845 0.07841729 0.068585396 0.12558253 0.11519089 -0.08936753 -0.031985853 0.050127037
00000000: a06e acbd 875b ce3d e5fd de3d d65a 283c
00000010: 6b6e f23d 6c6a c23d 4445 983d 97bd bf3d
00000020: a9d0 a3bd 384c 223d 0513 04be ca2c 593d
00000030: ab7f c43d ee07 c3bd 7743 3ebd 6c1a e53d
00000040: c2c0 39bd 5a34 f93c adf6 04be eed0 103c
00000050: 636d 8e3c cc29 00bd 2ebc 83bd c065 46bd
00000060: e4fe c33d 601d d1ba 387c b3bd 1625 f9bd
00000070: d88c f63c 6783 9e3d 895f fa3d 3fcc 56bd
00000080: 10d0 f5bc 77b2 aebd c44b 8c3d 54f1 4bbd
00000090: 8cf5 1b3c c4cc 8b3d 4817 60bd e8a5 423d
000000a0: d6f4 8e3d 9142 003d 73a8 bd3d 102d d0bb
000000b0: 210a 95bd aa68 cdbc 12e7 e1bd aceb 0f3e
000000c0: f640 babd 5c8a 2ebd b31c d3bd 0b2d 29be
000000d0: 84c0 21bd e119 d73d 67e7 f9bd 4079 8c3b
000000e0: 12c6 023e 975e a0bb 16dc 213d 30df ef3d
000000f0: 6d06 60bd b108 693d 48cd c13d 3da8 903d
00000100: 3867 bdbc c4c4 2b3d 4724 223d 71f0 0fbe
00000110: 1e07 3ebd 09aa 66bc 3646 aabc 7040 8fbd
00000120: 869e 87bd b45e 60bd 6e2d 973d 0176 f0bb
00000130: 2b04 913d 1a64 13be e631 6b3b 8a6b 1c3e
00000140: f9bd ca3d 8977 1d3d aa47 523b 8445 c2bd
00000150: c183 6d3d fcbc b3bd 20c7 1e3d e035 803d
00000160: daf0 15bd 37df afbc 3123 8fbd e6c9 5ebd
00000170: 40a3 b9bb efd0 d5bd fcbc 82bd 02e7 c43c
00000180: 5c9f 7e3c af8f 883d a5a9 3fbd 7e37 753d
00000190: b326 d5bc 7023 f63d 3069 8fbd fa2c b4bd
000001a0: 9afb 32bd ff86 fbbd 0c03 41bd d40a 7dbd
000001b0: 604d e8bd dd44 9b3d 2dae bcbd 02b5 813d
000001c0: beb1 4b3c 8bbb c73b 1cca 853d f3ac 9d3d
000001d0: 4097 84bc ecd4 c03d 4da3 e13d 7081 d5bd
000001e0: 320c 47bd b9ca c53c 2031 ed3d 54c3 c03d
000001f0: 2c93 c43d 0daa e1bd 3ceb 39bd fe0b bc3d
00000200: ca46 50bd 8ed3 75bd 9cf0 ef3d d6e7 e6bc
00000210: f7ea b4bd 9bb7 b93d 4a9d e4bd a1b8 9f3d
00000220: cdb5 dfbd fc1c 44bd 0400 f8bd 840c c53c
00000230: 4517 cfbd b46c a73c 5bfc 843d d11a c4bb
00000240: 2a3b aebd a879 ed3d 371a 913d 8147 483d
00000250: 9fba 843d 99cf 86bd cf4a b1bd d16d dd3c
00000260: 7c43 dc3d c45d f2bc 8c83 eabb 5296 90bd
00000270: 59a8 b03c 8ebc 0ebd 5041 57bd 837c b1bc
00000280: 1cc3 f83d 416f f0bd 7e94 8abc 8f57 7d3d
00000290: 161e c8bd 87fa 7a3c 2e98 e93d df5c 953d
000002a0: d4a8 51bd 0c1d 943c 9827 adbb 4c8a 31bc
000002b0: fa1f 34bd aed9 953d 5847 bebc 88f8 2ebd
000002c0: a5a9 2bbd b78a 5ebd 43a8 173d aec2 cbbd
000002d0: b5e6 52bd 3448 e73d f061 223d 95d9 76bd
000002e0: dc8e 2c3d 0c37 893d 332c b6bd b413 15bd
000002f0: 3413 873d 4364 063e a201 a3bc f622 5e3d
00000300: 27a3 0d3e f7c5 2fbd 2cc1 5f3d b454 18bd
00000310: f539 b83c 124f d5bd 9215 653d b1c4 d33d
00000320: af65 a03d e56a ea3d a452 973d 20c4 c53b
00000330: 87b7 b03d d9e9 a5bd a921 d43b 3971 913d
00000340: cca3 adbd 58cb 9cbd f447 d43d b652 893d
00000350: 4b33 473d 506d b7bd 46e2 28bd aa06 f8bd
00000360: 4e8e af3d 9e78 b9bd bcb4 a3bd 66bb 84bd
00000370: 02cd 9bbc 3885 93bd d33b f13d 3dd7 3bbd
00000380: c085 4ebc c25f 833c 0a54 8d3d 969b 843d
00000390: 0035 b7bd 1441 11bd 0330 93bd 3887 b83d
000003a0: 71fd 70bd aa40 983c afd3 be3d 2262 3dbd
000003b0: 321b 313d ba00 20bd 2a28 51bc e220 ac3c
000003c0: 63bd b73d 5b3c 043c efe2 80bd f890 d2bd
000003d0: 2bf4 12bd 1d43 113e 873a cd3d 3892 e53d
000003e0: ea82 d83d 3e99 a03d 8076 8c3d b598 003e
000003f0: 34e9 eb3d 5306 b7bd 9903 03bd 0252 4d3d

2.bias f4 [64]
-0.064245775 0.053633057 0.048506655 -0.024335101 0.09663367 -0.06226515 -0.07998294 0.097211726
0.11820361 0.021362202 -0.0082743885 0.03380795 -0.08704055 -0.061985765 0.062129967 0.096687615
0.004146229 -0.057452902 0.079235844 -0.0814216 0.093506604 0.029582974 0.013019021 -0.025736658
0.05560115 0.021434445 -0.07188211 0.115444705 0.003176799 -0.08177787 0.013052757 -0.13573009
-0.06629894 0.0037659027 -0.08455647 -0.08555047 0.06879548 -0.002434936 0.019629152 0.053963207
-0.008491782 -0.04780688 0.013041924 -0.11702401 -0.008059841 -0.08322598 -0.10760071 0.0038452414
-0.031400885 0.015085725 -0.103717916 0.07926902 0.09153024 -0.11740786 -0.019117562 -0.124344945
0.0777393 -0.094100654 -0.099976115 -0.0253228 0.109074555 -0.06721541 -0.070893005 0.0145547725
00000000: 4a93 83bd 56ae 5b3d eaae 463d 685a c7bc
00000010: e0e7 c53d be09 7fbd 18ce a3bd f116 c73d
00000020: bc14 f23d c9ff ae3c 4d91 07bc 347a 0a3d
00000030: 5142 b2bd c9e4 7dbd fe7b 7e3d 2804 c63d
00000040: 17dd 873b bc53 6bbd 6746 a23d 5ec0 a6bd
00000050: 6480 bf3d fe57 f23c bb4d 553c afd5 d2bc
00000060: 08be 633d 4a97 af3c ed36 93bd 466e ec3d
00000070: d831 503b 287b a7bd 3bdb 553c d4fc 0abe
00000080: bdc7 87bd 5dcd 763b f12b adbd 1635 afbd
00000090: a5e4 8c3d 7293 1fbb 51cd a03c 8608 5d3d
000000a0: 1d21 0bbc 26d1 43bd cbad 553c 49aa efbd
000000b0: 6c0d 04bc 6272 aabd c35d dcbd 7200 7c3b
000000c0: 379e 00bd 1e2a 773c 0f6a d4bd cc57 a23d
000000d0: 3574 bb3d 8873 f0bd 6f9c 9cbc 90a8 febd
000000e0: c835 9f3d d8b7 c0bd 47c0 ccbd c371 cfbc
000000f0: 7b62 df3d 3ca8 89bd 5a30 91bd 2477 6e3c

4.weight f4 [1, 64]
0.021085188 -0.11210064 -0.112083875 -0.042683367 0.12649389 -0.047742255 -0.024069004 -0.10775737
-0.044256676 -0.16017625 0.051801495 0.043066133 0.05726048 0.07247111 0.012213351 0.10211779
0.001998744 0.051602125 0.12880942 0.08405658 -0.106577046 -0.067617 0.0038810265 0.025981773
-0.11207234 -0.109775744 -0.12497763 -0.095636815 -0.014801937 0.040741716 0.011652263 -0.10814928
0.017875085 -0.050239086 0.080879524 0.0807743 0.049129494 -0.047148973 0.094426006 -0.107699834
-0.034974027 -0.112234265 -0.13974017 0.047586884 -0.12358421 -0.045712557 0.10819966 -0.022417633
0.12544814 0.112203166 -0.12000527 0.08015281 -0.015649011 -0.020342208 0.04579549 0.045583263
-0.037928794 -0.058983438 -0.062236637 0.1096344 0.019741863 -0.010739197 0.098502785 -0.0075743687
00000000: d8ba ac3c 0595 e5bd 3b8c e5bd c1d4 2ebd
00000010: 9d87 013e 628d 43bd 5c2c c5bc e5af dcbd
00000020: 7d46 35bd 3e05 24be ce2d 543d 1d66 303d
00000030: f789 6a3d bc6b 943d 821a 483c 2223 d13d
00000040: 5cfd 023b c05c 533d 9ee6 033e db25 ac3d
00000050: 1145 dabd c87a 8abd d258 7e3b bad7 d43c
00000060: 2f86 e5bd 1bd2 e0bd 46f4 ffbd 3cdd c3bd
00000070: d383 72bc c9e0 263d 22e9 3e3c 5f7d ddbd
00000080: c56e 923c 80c7 4dbd 2aa4 a53d ff6c a53d
00000090: 023c 493d 481f 41bd 6c62 c13d bb91 dcbd
000000a0: ed40 0fbd 14db e5bd 0c18 0fbe 77ea 423d
000000b0: b819 fdbd 173d 3bbd c997 dd3d 2fa5 b7bc
000000c0: 7a75 003e c6ca e53d 53c5 f5bd 2827 a43d
000000d0: 5b32 80bc b4a4 a6bc 0d94 3b3d 84b5 3a3d
000000e0: 395b 1bbd 9e98 71bd d8eb 7ebd 0088 e03d
000000f0: b0b9 a13c 75f3 2fbc d4bb c93d 6932 f8bb
