goatmodel.pt (torch, 47010 bytes, 5 tensors)

0.weight f4 [64, 106]
0.0471786 0.0031933782 0.013222306 -0.096363254 0.07376755 -0.050044447 -0.031651776 -0.053873837
0.024873454 0.010869372 -0.10181687 -0.072299786 0.042456377 0.09473171 -0.06694544 -0.034735646
0.0359912 -0.059608564 -0.008511955 -0.02498247 -0.044513676 0.07991508 0.056064073 0.04963549
0.04193059 -0.07557499 -0.007654325 -0.056979325 0.051805817 -0.030554645 -0.018190086 -0.10169913
0.0051160716 0.062865436 0.07102675 -0.05210221 -0.0058232285 0.0075469385 -0.019061271 0.008165158
-0.040238917 -0.075066 0.097048715 0.02659503 0.08549677 0.07075565 -0.025150651 0.017316185
-0.0802242 -0.09046072 -0.05821343 -0.086608015 -0.090888165 0.067932375 -0.0361793 0.1018475
0.0040564826 0.087375596 -0.02036936 -0.09651934 0.039503936 0.07362537 0.0034936275 0.084227465
-0.062452246 -0.06964736 0.023400534 -0.07578521 0.049732063 -0.08352479 0.051426955 0.043005202
-0.056677807 0.0837087 0.08300097 0.010880913 -0.1003071 0.061733745 0.083116695 -0.033199493
0.031355362 -0.045635667 0.003977604 0.08317509 0.06487841 -0.0585259 -0.0083930725 0.05603554
-0.04969623 -0.038279504 -0.046607472 -0.002916345 -0.016854469 0.037960436 0.089566916 0.027768413
-0.05106428 0.027798327 0.010895754 0.06622249 0.07066266 -0.02334358 0.033761084 0.017549641
-0.05264855 0.059830498 0.021931859 -0.01951111 -0.064508714 -0.047724847 0.0030071512 -0.0607273
0.034615062 0.021999305 -0.03989241 0.0125227235 0.08978146 0.07993848 0.022219365 0.0042438502
0.028488215 -0.08681545 -0.026185494 0.056766897 -0.011229198 0.04912153 0.04661815 0.032424048
-0.0844687 -0.020286432 -0.1014693 -0.09860971 0.061047982 0.021908235 -0.009714842 0.06944558
0.04687651 -0.016113007 -0.043486416 0.034050867 0.081916325 -0.050740905 0.05525458 -0.09196912
-0.075614005 0.028196555 -0.077643245 -0.034682762 -0.018494079 -0.07411858 0.06102241 -0.0452939
-0.028072823 0.010519783 0.0558741 -0.03879639 -0.03522802 -0.06184776 -0.0068560583 0.032536045
-0.0279688 -0.0050476645 -0.079584785 0.09315939 -0.006212393 0.0058300802 -0.035581686 -0.097683884
-0.071523786 -0.006752381 0.08694993 0.015270526 -0.06587469 -0.02854423 -0.007604621 -0.045387603
-0.09533804 -0.055150684 -0.03620714 0.079252176 0.03885853 -0.0017645269 0.045235693 -0.08565658
-0.049745284 -0.04424146 0.037124347 -0.077246 0.040620755 0.076474525 0.01900246 -0.08391675
0.029678503 -0.05198708 -0.055294774 0.04566908 0.0682487 -0.09005997 0.01595519 -0.06978184
0.012394568 0.0007498385 -0.0022295467 -0.019598883 0.07844623 -0.017288182 0.08107645 -0.01811313
0.013801127 -0.040387396 -0.04207972 0.009161997 -0.084067814 -0.0019044811 0.047690544 -0.034399554
0.021599393 -0.07725064 0.01655461 0.082688056 -0.0020162067 0.049385168 0.008682549 -0.093615554
-0.09728046 0.050111536 0.082586184 0.0020658812 -0.094113074 0.060982384 0.021130752 0.08056644
0.039043613 -0.071632124 -0.05552115 0.057677474 -0.03663251 -0.084756896 0.027603406 0.079998404
0.05550084 0.036438428 -0.04448125 -0.037779085 -0.0018565068 -0.07686278 0.057109784 -0.046934534
0.10176156 0.09224598 0.0999955 -0.005422806 0.019485833 -0.053734332 -0.022885649 0.05035851
00000000: 593e 413d ff47 513b 5fa2 583c 195a c5bd
00000010: 7113 973d 68fb 4cbd 4ba5 01bd d0aa 5cbd
00000020: 6ac3 cb3c 7315 323c 5d85 d0bd e911 94bd
00000030: bde6 2d3d b302 c23d b11a 89bd f746 0ebd
00000040: 826b 133d 1c28 74bd ba75 0bbc 09a8 ccbc
00000050: f953 36bd 84aa a33d 71a3 653d 954e 4b3d
00000060: 69bf 2b3d 0fc7 9abd 22d1 fabb 2763 69bd
00000070: 5632 543d bc4d fabc 6003 95bc a247 d0bd
00000080: b8a4 a73b 98bf 803d 7976 913d 2069 55bd
00000090: c8d0 bebb 4f4c f73b 6226 9cbc 28c7 053c
000000a0: 90d1 24bd 34bc 99bd 7ac1 c63d d2dd d93c
000000b0: ee18 af3d 57e8 903d bd08 cebc acda 8d3c
000000c0: 964c a4bd 7843 b9bd 3571 6ebd 8b5f b1bd
000000d0: 9323 babd 2120 8b3d bf30 14bd 6c95 d03d
000000e0: 3eec 843b faf1 b23d a5dd a6bc efab c5bd
000000f0: e1ce 213d e6c8 963d 58f5 643b 737f ac3d
00000100: edcd 7fbd 46a3 8ebd 7ab2 bf3c 4735 9bbd
00000110: d9b3 4b3d 0c0f abbd 12a5 523d 3926 303d
00000120: fd26 68bd 786f ab3d 6afc a93d db45 323c
00000130: cf6d cdbd 86dc 7c3d 1639 aa3d 31fc 07bd
00000140: 7b6e 003d 77ec 3abd 9056 823b b457 aa3d
00000150: f9de 843d dbb8 6fbd 1983 09bc 8685 653d
00000160: 468e 4bbd f8ca 1cbd 7ae7 3ebd 2620 3fbb
00000170: 6212 8abc 677c 1b3d dc6e b73d 957a e33c
00000180: c728 51bd 51b9 e33c 1b84 323c a89f 873d
00000190: 96b7 903d 093b bfbc 1049 0a3d 44c4 8f3c
000001a0: 02a6 57bd d310 753d 71aa b33c c3d5 9fbc
000001b0: 251d 84bd 217b 43bd a013 453b 30bd 78bd
000001c0: 86c8 0d3d e337 b43c 3966 23bd 1c2c 4d3c
000001d0: 58df b73d c9b6 a33d 6305 b63c ff0f 8b3b
000001e0: 1e60 e93c 4ccc b1bd f682 d6bc 6884 683d
000001f0: acfa 37bc a833 493d acf2 3e3d 14cf 043d
00000200: edfd acbd bb2f a6bc 23cf cfbd e3f3 c9bd
00000210: 730d 7a3d e678 b33c 002b 1fbc 7c39 8e3d
00000220: 9501 403d 6dff 83bc d01e 32bd ec78 0b3d
00000230: bfc3 a73d b2d5 4fbd a052 623d 4e5a bcbd
00000240: 84db 9abd 76fc e63c 6c03 9fbd 830f 0ebd
00000250: e580 97bc 7bcb 97bd a2f2 793d 1986 39bd
00000260: faf8 e5bc 2b5b 2c3c 3edc 643d f7e8 1ebd
00000270: 424b 10bd 1454 7dbd c9a8 e0bb 8444 053d
00000280: d31e e5bc e166 a5bb 59fd a2bd 5aca be3d
00000290: 5491 cbbb 420a bf3b 1abe 11bd 7d0e c8bd
000002a0: 107b 92bd 1443 ddbb ce12 b23d 3a31 7a3c
000002b0: 4fe9 86bd 97d5 e9bc 2f30 f9bb 5ae8 39bd
000002c0: 9740 c3bd afe5 61bd f04d 14bd f74e a23d
000002d0: 1f2a 1f3d b347 e7ba 1049 393d b86c afbd
000002e0: b6c1 4bbd 8836 35bd b30f 183d 2733 9ebd
000002f0: f361 263d ad9e 9c3d 0cab 9b3c 8cdc abbd
00000300: 5520 f33c 68f0 54bd c67c 62bd 800f 3b3d
00000310: f9c5 8b3d 5d71 b8bd 75b4 823c c8e9 8ebd
00000320: 9612 4b3c cf90 443a 961d 12bb d68d a0bc
00000330: 6ba8 a03d f29f 8dbc 690b a63d fd61 94bc
00000340: 1f1e 623c 416d 25bd c95b 2cbd 331c 163c
00000350: bf2b acbd c89f f9ba 2957 433d 8ce6 0cbd
00000360: 36f1 b03c 9535 9ebd 899d 873c 5b58 a93d
00000370: 5622 04bb 1a48 4a3d 4041 0e3c 83b9 bfbd
00000380: fa3a c7bd c141 4d3d f222 a93d bc63 073b
00000390: 5bbe c0bd aac8 793d 661a ad3c 0500 a53d
000003a0: 32ec 1f3d ddb3 92bd 256a 63bd 373f 6c3d
000003b0: f90b 16bd 0695 adbd 8a20 e23c 34d6 a33d
000003c0: d954 633d 7640 153d f931 36bd 3ebe 1abd
000003d0: 0856 f3ba 3c6a 9dbd f3eb 693d 6d3e 40bd
000003e0: 5d68 d03d 76eb bc3d 71ca cc3d cbb1 b1bb
000003f0: c1a0 9f3c 8818 5cbd af7a bbbc ba44 4e3d

0.bias f4 [64]
-0.06737141 -0.0053828782 0.011576551 0.075395145 -0.05130515 0.091388665 0.058540888 -0.024455
-0.0071824156 0.009324124 -0.089326374 0.08211048 0.08502445 -0.05910683 -0.05228208 -0.097351685
-0.065230705 0.07543234 0.038385503 -0.036690187 0.001754805 0.007602227 0.08350338 0.05153171
0.042942822 0.090271235 -0.018653002 -0.05412536 -0.058921814 0.065222844 0.06697385 -0.051501002
0.022361467 0.049853884 0.059815068 0.018763022 -0.00874936 -0.035164095 0.030733984 -0.022770202
-0.05796939 -0.018466111 -0.103021234 0.10522982 0.03875776 -0.04228932 -0.020342512 0.073962964
0.065286025 -0.042267412 0.06295579 0.081690274 0.100324504 0.048104532 -0.08228663 0.09398775
0.07250722 0.0038506002 -0.0024556858 0.059082728 -0.046106722 0.094410524 -0.027098717 -0.0056233825
00000000: 06fa 89bd db62 b0bb 93ab 3d3c c568 9a3d
00000010: 5925 52bd fb29 bb3d 92c8 6f3d da55 c8bc
00000020: 785a ebbb 36c4 183c bff0 b6bd 8a29 a83d
00000030: 4d21 ae3d 011a 72bd bc25 56bd 5260 c7bd
00000040: ad97 85bd 457c 9a3d 1e3a 1d3d 7348 16bd
00000050: 7c01 e63a 1a1c f93b d203 ab3d ea12 533d
00000060: d0e4 2f3d 20e0 b83d 2ece 98bc 8eb2 5dbd
00000070: 0058 71bd 8e93 853d 9629 893d b7f2 52bd
00000080: 652f b73c 9633 4c3d a500 753d e9b4 993c
00000090: 7a59 0fbc 3a08 10bd d6c5 fb3c 9388 babc
000000a0: 5071 6dbd 3e46 97bc ccfc d2bd bb82 d73d
000000b0: 75c0 1e3d 9137 2dbd 57a5 a6bc e579 973d
000000c0: aeb4 853d 9820 2dbd f7ee 803d 3b4d a73d
000000d0: ef76 cd3d 4209 453d e585 a8bd a67c c03d
000000e0: aa7e 943d 5a5a 7c3b 92ef 20bb bb00 723d
000000f0: 67da 3cbd 4e5a c13d 21fe ddbc 5a44 b8bb

2.weight f4 [64, 64]
0.015169429 0.015394153 0.0043014935 0.028558096 -0.16712514 0.0827072 -0.011902331 -0.09247027
0.01402828 -0.01485999 0.08388464 0.055588454 -0.08549967 0.005010846 -0.07087183 -0.07167036
-0.08465778 0.0041584675 0.13181226 0.07010647 -0.07024912 -0.11469606 0.061797325 0.007891536
-0.10773487 -0.06607668 -0.014241054 0.10200211 -0.11088118 -0.030669706 -0.09721191 0.08949121
-0.1168757 0.0327321 0.09841358 0.10318375 0.12507695 0.08474799 -0.012073172 0.0071690837
-0.07610866 0.06485813 0.050681986 -0.09129849 0.015102321 0.0769162 0.018003026 0.11446515
-0.026015267 -0.11653029 -0.01115708 0.08904907 0.10232697 -0.022483945 0.07043265 -0.094471276
0.0855481 -0.09049279 0.020436756 -0.07540139 0.08338862 0.034211647 0.08826151 -0.0615935
-0.12266426 0.043651763 -0.040944833 -0.09542638 -0.06239429 -0.01805874 -0.055944633 0.104947776
0.037483454 0.049307838 0.022958653 0.09647027 0.056709435 -0.045654982 -0.060315933 -0.062955946
0.058224738 0.038137674 0.060435638 -0.04464463 -0.032008905 -0.020111935 0.021825258 0.011683008
0.101767704 -0.107670076 0.0724757 -0.106909394 -0.07761419 -0.10157105 -0.06596449 -0.00021651306
-0.00267002 0.002884185 -0.087384745 -0.07933047 0.0038900266 0.06620079 -0.121465735 0.11183919
-0.07329558 0.01464556 -0.032454472 -0.100486964 -0.12561241 -0.10106825 0.02502188 0.07192328
-0.032757863 0.03810798 0.07641021 -0.06797548 -0.018772405 -0.104430795 0.06648611 -0.001260997
-0.12667795 0.06100151 0.09486086 -0.05504645 0.057882838 -0.047413494 0.10294023 0.12353445
-0.025275124 -0.101976134 -0.121486604 -0.062122084 -0.09932234 0.054587103 -0.08791462 -0.03003697
0.023810135 0.06527069 0.122450456 -0.11687568 -0.08818427 0.030003745 -0.019378498 0.016550027
0.053025246 0.058951233 0.06281226 0.04686006 0.039303415 0.04375868 -0.114485405 -0.123024836
-0.013478483 0.084231496 -0.09218632 -0.015647678 0.059653576 0.02971731 -0.10883162 -0.102022424
0.053405184 -0.05564368 0.022986772 0.02020589 -0.015351728 0.003947462 0.09923495 0.06889435
-0.0675708 -0.10306646 0.05701925 0.0008204599 -0.11069789 0.06769379 -0.07905661 -0.06815197
-0.06925893 0.11882028 -0.00034500138 -0.066554524 -0.09934578 0.048159897 0.02312907 0.103780255
-0.105377145 -0.10323781 -0.023632742 -0.10505593 0.10745656 0.07313214 0.082146466 0.012465211
0.07303822 -0.04325408 -0.09447259 0.05694182 0.021638239 -0.056949474 -0.031926516 -0.054839563
0.006633916 -0.037955288 0.086225726 -0.0007006923 0.08964527 -0.08837473 0.10497225 -0.08041577
0.029361662 0.09919892 -0.11583105 0.10868824 -0.08675899 -0.072402544 -0.10735841 -0.05582323
0.06166886 -0.017046964 0.08532244 0.030573836 -0.035340726 0.09569526 -0.030424979 0.12329865
0.11717105 -0.0028071236 0.019240078 -0.10203812 0.029163396 0.032495152 0.08340644 0.051766492
0.09048484 0.07863405 -0.017433926 -0.029613823 -0.122931644 0.06508148 -0.0027945256 0.038086094
-0.035736088 0.071177445 -0.03809106 0.03035635 0.05273883 0.11114293 -0.12555577 0.06703577
-0.093655735 0.052753296 -0.11911185 0.0014672643 0.12323661 0.077474095 0.035368893 0.06706975
00000000: 3289 783c c237 7c3c 8bf3 8c3b abf2 e93c
00000010: da22 2bbe 6462 a93d ff01 43bc 0e61 bdbd
00000020: dfd6 653c 5177 73bc b6cb ab3d b8b0 633d
00000030: 731a afbd 0632 a43b 4025 91bd e9c7 92bd
00000040: 0f61 adbd c143 883b cbf9 063e fb93 8f3d
00000050: c5de 8fbd c5e5 eabd 311f 7d3d 804b 013c
00000060: 19a4 dcbd 3653 87bd 4f53 69bc 7be6 d03d
00000070: ac15 e3bd 093f fbbc 0a17 c7bd 2b47 b73d
00000080: 875c efbd 1812 063d 0f8d c93d 0052 d33d
00000090: 2c14 003e 5b90 ad3d 8ece 45bc a2ea ea3b
000000a0: dbde 9bbd 57d4 843d ea97 4f3d b4fa babd
000000b0: ba6f 773c 3e86 9d3d 157b 933c b46c ea3d
000000c0: f81d d5bc 6fa7 eebd 2fcc 36bc 5c5f b63d
000000d0: cd90 d13d 4030 b8bc fe3e 903d 287a c1bd
000000e0: d833 af3d 4954 b9bd fc6a a73c 0b6c 9abd
000000f0: a7c7 aa3d 8321 0c3d 73c2 b43d 7749 7cbd
00000100: 6637 fbbd 31cc 323d c5b5 27bd e86e c3bd
00000110: 2891 7fbd ecef 93bc 3326 65bd dcee d63d
00000120: 4088 193d 04f7 493d c913 bc3c 3492 c53d
00000130: 2748 683d b800 3bbd d70d 77bd 0cef 80bd
00000140: 107d 6e3d 4036 1c3d 5c8b 773d 4add 36bd
00000150: c51b 03bd c9c1 a4bc e2ca b23c 166a 3f3c
00000160: 966b d03d 2182 dcbd 246e 943d 50f3 dabd
00000170: 30f4 9ebd 7c04 d0bd 6418 87bd c807 63b9
00000180: 81fb 2ebb 9804 3d3b c6f6 b2bd 0378 a2bd
00000190: d1ef 7e3b 4894 873d 07c3 f8bd f20b e53d
000001a0: fe1b 96bd eef3 6f3c fbee 04bd 1ccc cdbd
000001b0: 8aa0 00be dffc cebd b0fa cc3c 834c 933d
000001c0: 1c2d 06bd 1d17 1c3d f57c 9c3d ba36 8bbd
000001d0: 96c8 99bc d0df d5bd df29 883d 0a48 a5ba
000001e0: ddb7 01be b8dc 793d 6946 c23d 6378 61bd
000001f0: 8e16 6d3d a734 42bd 54d2 d23d a1ff fc3d
00000200: c70d cfbc ddd8 d0bd f8cd f8bd ba73 7ebd
00000210: 8369 cbbd ba96 5f3d 950c b4bd 1710 f6bc
00000220: 790d c33c a4ac 853d 4ec7 fa3d 845c efbd
00000230: f499 b4bd 6aca f53c a8bf 9ebc ec93 873c
00000240: 0031 593d d976 713d b7a3 803d 56f0 3f3d
00000250: 9efc 203d 4d3c 333d 5377 eabd 72f4 fbbd
00000260: dbd4 5cbc 9081 ac3d 2ecc bcbd 8f2f 80bc
00000270: 4f57 743d b771 f33c 1de3 debd 22f1 d0bd
00000280: 65bf 5a3d a1ea 63bd c14e bc3c d386 a53c
00000290: d085 7bbc b659 813b b23b cb3d 7b18 8d3d
000002a0: 8f62 8abd 8214 d3bd 048d 693d 2214 573a
000002b0: 93b5 e2bd 0ba3 8a3d 6fe8 a1bd 4393 8bbd
000002c0: a0d7 8dbd 0c58 f33d 4de1 b4b9 bd4d 88bd
000002d0: cd75 cbbd 5043 453d 2d79 bd3c be8a d43d
000002e0: f9cf d7bd 586e d3bd 7499 c1bc 9027 d7bd
000002f0: 2f12 dc3d 4ec6 953d 683c a83d e23a 4c3c
00000300: 1095 953d 312b 31bd d87a c1bd d33b 693d
00000310: ad42 b13c da43 69bd 61c5 02bd 739f 60bd
00000320: 5261 d93b 0177 1bbd 1d97 b03d aaae 37ba
00000330: f097 b73d cffd b4bd b1fb d63d 06b1 a4bd
00000340: de87 f03c ce28 cb3d d438 edbd f197 de3d
00000350: b3ae b1bd c947 94bd bade dbbd e6a6 64bd
00000360: 7d98 7c3d 13a6 8bbc 88bd ae3d fb75 fa3c
00000370: 70c1 10bd e0fb c33d ce3d f9bc 0184 fc3d
00000380: 60f7 ef3d b8f7 37bb 5e9d 9d3c 5df9 d0bd
00000390: 13e8 ee3c a319 053d ffd0 aa3d 1a09 543d
000003a0: 1e50 b93d e40a a13d 98d1 8ebc b098 f2bc
000003b0: 96c3 fbbd 7049 853d 5c24 37bb 2a00 1c3d
000003c0: 0160 12bd 7bc5 913d 5f05 1cbd e1ad f83c
000003d0: ac04 583d e89e e33d b191 00be 0d4a 893d
000003e0: 94ce bfbd d713 583d eaf0 f3bd 3851 c03a
000003f0: 7a63 fc3d bdaa 9e3d f9de 103d dd5b 893d

2.bias f4 [64]
0.11719153 0.079211675 0.041556876 0.0721628 -0.09016722 -0.062129643 0.07939167 -0.038413793
0.040648587 -0.04176129 -0.07117877 -0.032204587 -0.015400341 0.055788547 -0.013249866 -0.06653806
0.06254998 -0.0023186256 -0.033640224 0.05540002 -0.029545859 0.07651765 0.0017656339 0.06525992
0.09672074 0.0748899 0.12287434 -0.12069484 0.047717914 -0.01678097 -0.07565029 -0.067452274
-0.06136315 -0.0585117 -0.087937355 0.050200947 -0.10247196 -0.0372797 0.08024391 -0.022887504
0.12529474 -0.020234011 0.037509337 -0.09254745 0.06393124 -0.04326231 0.016243558 0.027039493
0.007697836 -0.045232568 0.108325966 0.055201236 0.03156212 -0.07447223 0.0019921414 0.063746415
0.023982124 -0.03515789 -0.024796503 -0.10696998 0.1366484 0.010048683 -0.088360965 0.10601086
00000000: 1d02 f03d bb39 a23d 8b37 2a3d 17ca 933d
00000010: 97a9 b8bd a77b 7ebd 1a98 a23d c857 1dbd
00000020: 227f 263d e30d 2bbd 2dc6 91bd f5e8 03bd
00000030: b651 7cbc 8882 643d f715 59bc 1b45 88bd
00000040: 341a 803d 15f4 17bb 55ca 09bd 22eb 623d
00000050: 280a f2bc 49b5 9c3d d86c e73a fea6 853d
00000060: 8615 c63d e05f 993d 8ba5 fb3d db2e f7bd
00000070: dc73 433d 3f78 89bc 8aee 9abd 6b24 8abd
00000080: ed57 7bbd f7a9 6fbd 8018 b4bd 829f 4d3d
00000090: d2dc d1bd 99b2 18bd eb56 a43d 937e bbbc
000000a0: 444d 003e ccc1 a5bc 64a3 193d 8489 bdbd
000000b0: 62ee 823d d233 31bd 3611 853c ed81 dd3c
000000c0: 213e fc3b c945 39bd 01da dd3d b11a 623d
000000d0: 4847 013d e684 98bd 968e 023b 7b8d 823d
000000e0: 2976 c43c b801 10bd 0922 cbbc 1413 dbbd
000000f0: 8fed 0b3e 3ba3 243c 98f6 b4bd 391c d93d

4.weight f4 [1, 64]
0.043032013 -0.025250971 0.07647665 -0.10908737 0.09252377 0.037457693 0.034266993 0.029556733
-0.016376728 0.07072709 0.07085229 0.09245448 0.09608637 0.08363342 -0.01261889 0.04840387
-0.052725453 -0.13456142 0.121462956 0.0628372 -0.02363777 0.11613008 0.079288065 0.09155949
-0.042321 -0.050741423 -0.008844676 -0.07787069 -0.12091023 0.09767368 -0.014287958 -0.015584456
0.03698247 -0.06649922 -0.06350922 0.015307043 -0.06939799 0.060270775 -0.071592115 -0.121212564
-0.015325458 -0.09155957 0.03265218 0.038796872 0.107749246 0.08148135 0.08115869 0.06642399
0.11183676 -0.12164689 -0.016762387 -0.057196464 0.029774744 -0.023219306 0.10201931 0.1089544
-0.055985108 -0.04137131 0.07555231 0.08888509 0.07893007 0.088613965 -0.0946477 -0.019605864
00000000: 5642 303d 20db cebc ca9f 9c3d 3369 dfbd
00000010: 1a7d bd3d 3d6d 193d 8c5b 0c3d f620 f23c
00000020: 7d28 86bc 5dd9 903d 011b 913d c658 bd3d
00000030: eec8 c43d 0048 ab3d 76bf 4ebc 2343 463d
00000040: a5f6 57bd 78ca 09be 92c1 f83d cab0 803d
00000050: ffa3 c1bc 9bd5 ed3d c861 a23d 8b83 bb3d
00000060: c958 2dbd 3dd6 4fbd 43e9 10bc ab7a 9fbd
00000070: c89f f7bd 2309 c83d 0a18 6abc f255 7fbc
00000080: ee7a 173d be30 88bd 1f11 82bd 64ca 7a3c
00000090: 8920 8ebd 7dde 763d e39e 92bd 4b3e f8bd
000000a0: a117 7bbc 9583 bbbd 4bbe 053d 78e9 1e3d
000000b0: a3ab dc3d b2df a63d 8736 a63d 4d09 883d
000000c0: ac0a e53d 0122 f9bd 4651 89bc d746 6abd
000000d0: 2aea f33c 6a36 bebc 80ef d03d 7c23 df3d
000000e0: a450 65bd f674 29bd 2bbb 9a3d 6309 b63d
000000f0: 17a6 a13d 3d7b b53d a7d6 c1bd 7a9c a0bc
